checkpoint_critic.pth (torch_old, 580688 bytes, 5 tensors)

fcs1.weight f4 [512, 24]
00000000: e6b4 d23e 9862 963e ad56 16be 40e7 c13c
00000010: e6d6 96bd 9dfc 11bf 5c5e 23be ba67 083c
00000020: cb4a c23e 456a 943e a813 12be 36b1 f0bd
00000030: c7d8 57be a655 3fbd d677 cebd a821 abbd
00000040: ee30 063f 98a0 8c3e 711e a23d 398f 7dbe
00000050: 05d9 2abe 4845 6cbe 348b fd3c 9b83 70be
00000060: e63f 9f3e c978 ea3b e477 d53d f21d d3bd
00000070: f1c0 063e ad7b d03e 423b 993d 6915 0ebe
00000080: 113f 693e 2135 3f3d 3ea1 5ebd 0fc1 ddbb
00000090: 92be fe3c f665 2d3f 5163 85bd b551 f2bc
000000a0: 650a 943e 037d d73c 96f3 eb3c ea11 af3c
000000b0: 817c 8abd bee5 16bf 8514 813d 2ef6 a6bc
000000c0: a6e1 cb3d 512f bf3e b5ff 6c3c 0cd8 f43d
000000d0: 612e 283f 60fe e53d 01d4 0b3d 13c8 f13d
000000e0: 2857 ff3d 2f7b 523e 20fa a83c ca9f 0b3b
000000f0: 318b 343e 46ac 893e c128 9f39 1cfc 00bd
00000100: 5612 6c3e f3d7 9c3e d104 22bd f620 143d
00000110: 4cd5 28be aed0 a0be b0ad bbbd 632b 783d
00000120: 865f 393d e0b9 d73e acdd 1ebd 9b8f 043e
00000130: 6710 613e f418 923e 6180 18bd a6c9 0b3e
00000140: 5cc8 3c3e f3fa b53e 47cd fcbc 565c f53b
00000150: dbfc be3d 447f bc3e 9852 78bd 63ce 55bd
00000160: 5ef2 623e 4121 bf3e 7e09 babd db02 c8bd
00000170: 00c6 f83b ac8b 8f3e cee8 3ebd aca2 0fbe
00000180: c50f 803c 263c 2c3f c1a6 19bd 903b a43e
00000190: 55fd 5bbe f5ec b9bd 12ac eebc 52f1 833e
000001a0: 1c7e 263e 8de1 3d3f 1483 7fbd 1459 853e
000001b0: ceaf f13d 5698 96be f97e 35bd bc8c 653e
000001c0: c203 3c3e 1b4d 2f3f e2b9 48bd 425a 70be
000001d0: 8ea4 dc3e 850c 97be c57e a93b ed0d 90be
000001e0: 59c5 bf3e 3e20 a13d 52b9 053d 25eb 17be
000001f0: f6ac 2b3e ae9c d83d 44bf 963d db54 29be
00000200: 6613 c63e 1979 6c3d 5fa0 c1bc e45d d43d
00000210: 761a 183d ddec bb3d 123e acbc 3350 c13d
00000220: 671e a13e fb5f de3c e7d0 e8bd 83ee a3bd
00000230: 7e0f 773d 108b ae3d 71b7 0ebe da18 e4bd
00000240: c00a 3bbd f242 6a3e 8435 c23d 2ed7 1c3d
00000250: 6fa1 58bd 6532 8dbe 5350 d43d 7326 923d
00000260: 1813 5c3c 65fd 9d3e ed0a 4c3b 6a8a d63d
00000270: 6c91 b4bd 6c84 b7be 78e5 4ebd c67f ca3d
00000280: 04bb d73d 08b7 943e 4139 403c e372 fa3c
00000290: 432c 33bd aa7a 4dbd e1df 3c3d a266 793d
000002a0: d241 293e 7da4 703f 7ff0 583a 47b9 fb3d
000002b0: 3e50 b8bc 4dae 06be f5e1 9c3c 21c4 f93d
000002c0: 303c 0b3d 89d5 833f bc63 72ba 48bf d63d
000002d0: 9db0 573d 89ec f7be 1b48 e13c 56ee 303e
000002e0: 023f 083e 1c03 8b3f 2398 b1bc 7937 0cbe
000002f0: d246 473e d7d0 cbbe f077 95bd 5668 15be
00000300: 6db8 743d bfff 993c 5fe8 6bbd 166c 5a3d
00000310: caa6 a43d 3fc9 73bf d29b 2cbd 7dc4 4e3d
00000320: 03e9 b63d 932a d53c 3015 823c 67df f03b
00000330: 42f0 063c 3cc9 7bbe 3cae 55bd 345e 50bb
00000340: d1b9 c63d 6e6a 703d 5975 febc b8aa 9a3d
00000350: 28cb 823e c752 373f 2e62 82bd 4c4c 903d
00000360: 9324 1a3e 60b0 723e 5868 313c 0995 2c3d
00000370: 9fb6 acbc dce3 c2bd a156 edbc 6fa9 623a
00000380: ec53 403e 24e6 3c3e 7a73 da3c 2e07 be3c
00000390: da87 cebc 20de 20bc de85 2dbd 9f23 44bd
000003a0: 6694 5c3e 3da3 563e 19bb 0bbd 5b3a 0fbd
000003b0: c8c3 81bb 5edb d73d 9dd0 553c 2433 76bc
000003c0: bf12 1c3e 76a6 093e 475c 183d 8a65 123e
000003d0: 591f 503e 6f7a b8bd 3ced 853d 6fec 0d3e
000003e0: dd33 f83d 621c 3f3e ecf0 afbd cd56 a4bc
000003f0: 92b5 f53d e9b6 c9bb e105 9bbd 08a0 e13b
0.4115364 0.29372096 -0.14681502 0.023669839 -0.073652074 -0.5702608 -0.15953964 0.008325512
0.37947688 0.28987327 -0.14265311 -0.1175255 -0.21078788 -0.04671254 -0.10081451 -0.08356029
0.5241841 0.27466273 0.079159625 -0.24761666 -0.16684349 -0.23073304 0.030950166 -0.23487704
0.31103438 0.007155512 0.10423258 -0.10308446 0.13159539 0.40719357 0.07482006 -0.13875355
0.22777964 0.046681527 -0.05435299 -0.006767399 0.03109673 0.67733705 -0.06513084 -0.029579977
0.2891418 0.026304727 0.028802674 0.021370847 -0.067620285 -0.5894431 0.06302742 -0.02038106
0.099551484 0.37340787 0.014465262 0.1195527 0.6569577 0.11230159 0.03413773 0.11805739
0.124677956 0.20554803 0.020627081 0.0021304958 0.17631222 0.26889247 0.00030357207 -0.03149043
0.2305387 0.30633506 -0.039555375 0.036164246 -0.16487616 -0.3140921 -0.09163988 0.06058825
0.045257114 0.42134 -0.03878562 0.12945406 0.21978913 0.28534663 -0.037231807 0.13651142
0.18435806 0.35543022 -0.030859603 0.007487814 0.09325572 0.36815846 -0.060625643 -0.05219878
0.22162768 0.37330058 -0.09083842 -0.0976617 0.007591963 0.2803625 -0.04660874 -0.14026898
0.01563252 0.6727928 -0.037512545 0.32076693 -0.21483357 -0.09078399 -0.029134784 0.2577005
0.16259044 0.7417229 -0.062380865 0.26044524 0.1180111 -0.29413098 -0.044310544 0.22416967
0.18360808 0.6847703 -0.049005397 -0.2347193 0.43094295 -0.2950174 0.005172583 -0.28135625
0.37455252 0.07867478 0.03264744 -0.14835794 0.16765198 0.10576759 0.073607 -0.16536276
0.38686675 0.057732675 -0.023636041 0.10369471 0.03713461 0.091760375 -0.021025691 0.09439125
0.31468508 0.027145376 -0.1136797 -0.08004477 0.06031751 0.08522618 -0.13937165 -0.111375526
-0.04566455 0.228771 0.094828635 0.03829115 -0.05288833 -0.2757751 0.10366883 0.0713624
0.013432287 0.30857387 0.0031134442 0.10475619 -0.088167995 -0.35843217 -0.050511807 0.09887652
0.10533717 0.29045892 0.0117324 0.03057236 -0.043743383 -0.05016581 0.046111945 0.060888894
0.16529015 0.9400099 0.0008275583 0.12291198 -0.0224992 -0.13152428 0.019150713 0.12195612
0.033992946 1.0299541 -0.0009246429 0.10485703 0.052658666 -0.4842265 0.027500203 0.17278418
0.13305286 1.0860324 -0.02167899 -0.13693036 0.1946061 -0.3980777 -0.07298267 -0.14590582
0.059746195 0.018798707 -0.057594653 0.053325735 0.08039625 -0.9522895 -0.04214079 0.050480355
0.08931162 0.026021278 0.015879244 0.0073508504 0.008235993 -0.24588484 -0.052168116 -0.003179443
0.097034104 0.05869525 -0.031061815 0.07552093 0.2554562 0.71610683 -0.063663825 0.070458025
0.15053014 0.23700094 0.0108281 0.04213432 -0.021083174 -0.09516117 -0.028971972 0.00086464634
0.18782014 0.18447167 0.026666392 0.023196783 -0.025211263 -0.009818584 -0.042363994 -0.047885533
0.21540985 0.20960708 -0.034113977 -0.03496776 -0.0039601065 0.10539888 0.013050226 -0.015026841
0.15241526 0.13442406 0.037197378 0.14296547 0.20324458 -0.09007727 0.065393895 0.13859724
0.12119267 0.18663171 -0.08590874 -0.020060921 0.119975224 -0.006155838 -0.07569481 0.0068855323

fcs1.bias f4 [512]
00000000: 0865 74be 3dbd 56bd 649e dc3d 74b8 36bc
00000010: 4faf d8bd d401 f4be b86e aebe 5188 bfbe
00000020: 18ee e3be ab1a 8cbe 32cd e6bd 449f 063e
00000030: c485 63bc 7664 71be 5c0b 6ebe 7236 153d
00000040: 0cb1 a7be 59a2 a53d 736a 05bf a0fd 5abd
00000050: fad8 68be a4fa 83be 6275 ba3e 673a c5be
00000060: e344 553e 93dc f53c 2993 0cbf 8835 dfbe
00000070: 2a2d b83e ed81 8bbe b5cf b8be d4cf 9cbe
00000080: 3683 58be d40b 06bf e718 53bf d7ef 3d3f
00000090: adbb 483d 8cb6 b83d 7047 ffbd ed6a 7ebe
000000a0: 570f dbbe 1880 47be 8e59 fe3e b1de a43c
000000b0: 1aa1 ccbe 329d 89bd 2b61 b3be 970f acbe
000000c0: 3193 a8bd 69e8 bbbe bb7f 09bd 6ef3 1fbf
000000d0: 458d 20be 4c9d 05bf 847b 76be e8d2 33bf
000000e0: b3f2 433e 17c2 fe3e 2792 c53e f441 1abe
000000f0: 38de 05bf 3809 22be bc64 3abe 9f09 74be
00000100: f896 2ebf f8fc 7bbd 0a1c d1be ad4e febe
00000110: 31cb 70bf 659b 44be 728a 90be 6e28 5d3e
00000120: eddd 83bd 66e8 90bd bf79 b8be 84d8 6dbe
00000130: f1c4 c9be d901 55be e3a3 8fbe 7b8a 013e
00000140: 4357 743e 3005 6abe ced5 acbe a077 b8be
00000150: e92d 093c 446a e6bd d6ea 35be ad62 a93d
00000160: 274c 3bbd 65e2 57be 5f86 a0bd 58ff 45bf
00000170: d908 bf3a a091 a2bd 9628 0abe 11ad 51bf
00000180: a9cb 9cbe 86cb fabe 5b28 5dbe 4ab4 9c3e
00000190: 3d8c 7cbb 077c 8bbe c108 7dbe 5a94 09bf
000001a0: 6fa5 0dbf 442c abbe 0436 babe f6d3 8fbe
000001b0: 9199 413e d40b bf3d 9bce 1abd 6776 07bf
000001c0: 7208 23be 058e 85be 5a42 b1be ca7f 183e
000001d0: f636 01bc 324e 1abf aad2 a7be 7f17 13bf
000001e0: 7f09 ccbe 5633 ecbe a944 b9be 30f7 debe
000001f0: 348e 6abe 0be6 51be a924 5dbe d96d 07be
00000200: db86 883e e06a e5be e0ff 7bbe 38fd cd3e
00000210: 18ad c93e 4f33 1a3e 71a2 d1be 4ebb 8abe
00000220: 7668 5d3e 4afd d63d 4abf dcbe 24d9 b3be
00000230: ddb7 24bf e658 883b acc7 c0be 4d78 d6bd
00000240: ad76 43be b2fa 813d 490f 9d3d 4595 e6be
00000250: 7e60 45be 4c29 38be bba2 e5be e390 1dbf
00000260: 2aff 5cbf 8fed c0bc 1c5c 3ebd aca3 67bf
00000270: 016d 67bc 733e babd ccff 5e3e 42b2 cfbe
00000280: 8f33 d9bd f1f6 2bbe 6a08 7fbe 9879 cebe
00000290: b826 2dbf 0cf8 ff3d 1692 62be 60b7 c0be
000002a0: e297 2fbc 1dff 95bd b542 5fbe bbc3 d83e
000002b0: 30f2 5b3f 58ab 66bf c5d8 e4be 97b4 57bf
000002c0: f4f9 97bd b2d0 7abe acba f83c aecf e13d
000002d0: 2186 80be 0bae 19bf ca17 1ebf ca3f cc3d
000002e0: 0789 85bd 7670 033c 3f3e 08bf f78a 02bf
000002f0: a9ef 1abf 9523 d3be 39af 193e 7793 9ebe
00000300: c5d7 9c3d 2d1b 723f 3809 43bd 3455 0abc
00000310: 27c0 71be e9f5 3bbe 86f9 16bf 01a9 40be
00000320: 0e18 81bd 7222 cfbe b243 55bf 7080 03bf
00000330: 8e50 8cbe 34ec f53d f2df 653c 2969 cabe
00000340: dcda 5f3e dc65 78bd c595 b7be 57cf 693e
00000350: e258 c3be f704 aabe bd24 f6bd 230b abbe
00000360: 542c 91be 72bc 9ebe 5ffb 81be 6eb6 56be
00000370: 21a2 4b3e 7d48 5cbe 3c57 353e bf7f acbe
00000380: ff1a b63e 4dfe 2b3e 9460 babd d18a adbd
00000390: 89e3 55be 614f 14bf 8254 c8be 8f3b 9d3d
000003a0: b675 9cbe 9c4e 193e f65a 1fbf e62e 9c3e
000003b0: ed5c 59be a6cd 963d 2edb b2be 4ad4 d3be
000003c0: 8d59 d7be 01af 91be 7448 993d da6e 71be
000003d0: b364 84bd 6d50 85bf dddb 98bd 1207 a5be
000003e0: c1d7 d7bd 0aa1 cdbd 145a b9be 5c36 53bf
000003f0: fd6f ecbe e862 113e 8551 91be 4615 b2be
-0.23866665 -0.052426565 0.10772398 -0.0111523755 -0.105803125 -0.47657645 -0.34068847 -0.3740869
-0.4451759 -0.27364096 -0.11269607 0.13146693 -0.013886873 -0.23573479 -0.23246521 0.036428876
-0.32752264 0.08087606 -0.52115554 -0.053464532 -0.2273902 -0.2577716 0.3641768 -0.3852112
0.2082706 0.030012405 -0.5491205 -0.4359553 0.35971957 -0.27247563 -0.36095968 -0.3062731
-0.21143803 -0.523618 -0.8245987 0.7419409 0.049007107 0.09019193 -0.124647975 -0.24845476
-0.4278514 -0.19482458 0.496777 0.020125719 -0.3996666 -0.06719436 -0.3503507 -0.33605644
-0.082311995 -0.36700752 -0.03356908 -0.6248082 -0.1567889 -0.5219314 -0.24070555 -0.7024369
0.19135551 0.49757454 0.38588068 -0.15064222 -0.52292204 -0.15823829 -0.1820249 -0.23831795
-0.6819911 -0.061520547 -0.40841705 -0.496694 -0.94060045 -0.19199903 -0.28230625 0.21597454
-0.06438813 -0.070755765 -0.36030385 -0.23227125 -0.39408067 -0.20801486 -0.28054723 0.12650482
0.23861413 -0.22853541 -0.3375687 -0.36028767 0.008372762 -0.11250737 -0.17765364 0.08270774
-0.04572692 -0.21082456 -0.07838129 -0.7734275 0.001457478 -0.07937932 -0.13492045 -0.81904703
-0.3062413 -0.489834 -0.21597426 0.306063 -0.0038535737 -0.27243063 -0.2471037 -0.5374199
-0.55330557 -0.3343221 -0.36369336 -0.280914 0.18906237 0.09328428 -0.03779469 -0.5291504
-0.1592119 -0.26084915 -0.34620935 0.14892498 -0.007886639 -0.60275567 -0.3277791 -0.5745773
-0.39850995 -0.46132916 -0.36185196 -0.43547964 -0.22905809 -0.2049791 -0.21596016 -0.13225497
0.26665387 -0.44808102 -0.24609327 0.40232253 0.39389873 0.15058635 -0.40944245 -0.27096027
0.2162188 0.1049753 -0.43114692 -0.35126603 -0.64343053 0.004160988 -0.37652338 -0.10472164
-0.1908824 0.063466445 0.07668931 -0.4503576 -0.1927509 -0.17984504 -0.44850716 -0.61549205
-0.8632685 -0.023550777 -0.04647456 -0.9048412 -0.01412511 -0.090939425 0.21777266 -0.40565687
-0.10605537 -0.1679342 -0.24905553 -0.40327144 -0.67637205 0.12498483 -0.2212604 -0.37639904
-0.010717364 -0.073240496 -0.2180279 0.4233683 0.85916424 -0.901052 -0.44696632 -0.84259933
-0.07420722 -0.24493673 0.03036245 0.1102594 -0.25102332 -0.60031193 -0.6175505 0.09973104
-0.065202765 0.008022418 -0.5321998 -0.50993294 -0.6052194 -0.41238084 0.15008248 -0.30971882
0.07658342 0.94572717 -0.047616214 -0.008443166 -0.23608457 -0.18355526 -0.5897449 -0.1881447
-0.06303416 -0.40455967 -0.8330642 -0.51367855 -0.27405208 0.12007943 0.0140304435 -0.39533356
0.21860832 -0.060644016 -0.35856453 0.22833 -0.3815375 -0.33206913 -0.12018726 -0.33406934
-0.28354132 -0.31003147 -0.25387093 -0.20968029 0.19886066 -0.21512027 0.17709059 -0.33691213
0.3556747 0.16796227 -0.09100452 -0.08473743 -0.20887579 -0.5793362 -0.39126974 0.076773755
-0.30558556 0.14971393 -0.6224817 0.3050453 -0.21226855 0.07363443 -0.34932846 -0.413729
-0.4206051 -0.2845383 0.074845225 -0.23577443 -0.06464519 -1.0415169 -0.074638106 -0.32231957
-0.10539199 -0.100404814 -0.36201537 -0.8250482 -0.4617919 0.14197886 -0.28382507 -0.34781855

fc2.weight f4 [256, 514]
00000000: 5476 2cbd 362c f8bd 22db 123c 18fb 263d
00000010: 300c 8ebd 1093 073d 3325 88bd 658e 303d
00000020: 8869 bbbe deff ac3b de81 acbd 6897 63bd
00000030: 6f67 f1bd 1819 acbd e478 e33b f71b 28be
00000040: faae e8bd f0a3 d8bd 8b84 9cbd 57bc 52be
00000050: 9529 f13c fa06 07bd 60a6 12be c00a 6abd
00000060: 2639 35bd 85af 913d d6dd 33be 6cc0 4ebd
00000070: e685 273d 10ba 44bf 2de0 37bd d84f 54bf
00000080: b976 97bd f4b4 82be 7388 a03d 03a2 713e
00000090: 1828 853d 0626 f03d 94b9 90be ba1c 31be
000000a0: b435 01be 664a acbd b43b 2dbe c50c 87be
000000b0: f47d d3ba a16d 083e 2b0b 6fbe 57f1 e03b
000000c0: 875f 27be f4be d4bc 89cd debc e1c1 66be
000000d0: 435a 12be 8920 943d 16d7 85bd 7959 28be
000000e0: 6453 e8bd f91e 9f3c b4ae 02be f26b bdbe
000000f0: 76f5 33bd d563 ff3d da2f 3c3d 76ce 1cbc
00000100: 5892 a3bd 2aeb bebe 0f4b af3e a472 773e
00000110: c69c 03be d499 4e3e c244 33bd a13d 693e
00000120: 5aa5 0c3e 3b1b babd 531c cabe 9d11 463e
00000130: f53b b13d 75a4 02be 0961 abbd 9d23 4bbd
00000140: cd28 21bd 1584 38be 8c66 cb3b 3f23 18bd
00000150: 5afc e1be 3693 003d 7d21 c93d 50b6 af3d
00000160: 7a56 953c 701e a7be b455 833c 5bbd 1cbe
00000170: 348c 983d eeee 853c 0134 dd3b fbb1 643e
00000180: 4690 a2be 19b5 4bbd a3f3 0dbc 79e3 28be
00000190: 348a 9ebe a3c5 61be e5e6 91bd 0aa8 b8bd
000001a0: dc34 89bd 6699 88bd 40f2 0bbe 1f39 0fbd
000001b0: e4a7 7dbe 276b b53d c745 813c 97a1 49be
000001c0: 6dac 59be c79b 0abe 2222 793d b04b 34bd
000001d0: ba32 7b3d 9bc5 23bd 2025 48bd 8e4a fcbe
000001e0: 28f3 22be 7eb2 a6bd b4c1 2ebe b699 1bbc
000001f0: 04d6 ba3b 2348 f2be d50a 34be 1a5c 913d
00000200: ba33 83bc 22de 08bf b52f 2f3e 54f6 27bd
00000210: d66d aebd 7a00 b5bb 30e9 4abe 751d a63c
00000220: 534e 81be e8c7 113b b561 85bc e53a 39bc
00000230: fdd1 1cbd cddb 23be ba31 7cbd e392 073e
00000240: c5dc 193c 8b97 de3d a9e5 11bd f5cd 76be
00000250: 785b 67bc d2c1 b33a 3f7f 183d aacf 5abe
00000260: 77d1 95bd 509a 5b3e 0030 34be 846e d73c
00000270: f280 603d 36c8 043e 2b72 6abc e692 f4bc
00000280: e400 36be c27e 0b3e 4fbb 343e 728a d3bd
00000290: bbe2 88be 122e 9ebe 9165 eabe 179b fdbd
000002a0: 5c07 f13c 6ce3 0d3e 6a9d c23d 5e0e e4bd
000002b0: 9733 483d 60ee e1bc 1fc8 cabc 75be 93bd
000002c0: 6f10 3a3e 1aa5 08be 7b83 c9bd c8f0 4bbc
000002d0: 17ff 20bf 7975 1bbe 0fe6 4c3d 04f1 d6bd
000002e0: 4888 86be 9f3f d2bd 00f1 2dbe 6e44 a8ba
000002f0: 73e6 e7bd 5eb6 ab3c 1547 46be d6e5 2d3e
00000300: 7c02 4cbe 42f0 82bd 8fdc b1bb 5145 a2bd
00000310: 26ff 313d be0c 283e 5528 a8bd b348 923c
00000320: 5f03 113d c228 dfbd 0aa2 c8bb 8b15 25be
00000330: 64f4 80be 79fc bfbc 7b94 ec3d 73cf 0abe
00000340: 5748 ec3c 50da 7d3c fe71 98bc 346a ecbc
00000350: 320e 91bd 79a2 3fbe 5f34 83be a517 713d
00000360: eb48 3d3e 5f3f 80be 471b 203e 4e42 56be
00000370: 5166 06bc e456 84be f9c9 46be 9acb 0fbe
00000380: 84a2 5a3e 567a 2fbe 725f 413c 6196 d43d
00000390: 80aa 26be 6da0 a8bd 4341 cabd 82ce d6bc
000003a0: ab11 0dbe 41fe c5bb 5dad bc3d d4e1 78bd
000003b0: f7b8 2b3d 85d1 81be b6df f2ba 474f 77be
000003c0: c16f 2e3d a4c6 c2bc f121 f6bd 4e7a 08bc
000003d0: 9a34 0abe 32d9 923d 5616 64bb 588d 8c3b
000003e0: fd75 853d 5b96 1dbc b492 1bbe 2f8e 093d
000003f0: 794a d9bd 3db9 79be 1ccd 28be ad1c 0dbe
-0.042105034 -0.121178076 0.008963378 0.040766805 -0.06935918 0.033099234 -0.0664772 0.043104548
-0.3660395 0.005279525 -0.08423208 -0.055564314 -0.117873065 -0.08403224 0.0069419015 -0.16416918
-0.11361499 -0.105781436 -0.07642468 -0.20579658 0.029438773 -0.032965638 -0.1432128 -0.05713916
-0.044243954 0.07113556 -0.17565092 -0.050476477 0.04089918 -0.7684641 -0.044891525 -0.8293433
-0.073956914 -0.2552868 0.078385256 0.23596959 0.06501788 0.117260024 -0.28266585 -0.17296115
-0.12618142 -0.08412628 -0.16917306 -0.2637693 -0.0016135559 0.1332307 -0.23344104 0.0068647075
-0.16345035 -0.02596996 -0.027197616 -0.22534896 -0.14292245 0.07232768 -0.06535165 -0.16440381
-0.113440305 0.019423949 -0.12761956 -0.36996418 -0.04393526 0.12470213 0.045944072 -0.0095707085
-0.07986897 -0.3728879 0.34236953 0.24164826 -0.12852773 0.20175868 -0.043766744 0.22777416
0.13734952 -0.09087225 -0.39474735 0.19342656 0.08654014 -0.12758048 -0.08368117 -0.04959451
-0.03934555 -0.18019135 0.006207293 -0.03714299 -0.4413784 0.03139039 0.098208405 0.08579695
0.018229712 -0.3264041 0.016032077 -0.15306608 0.074486166 0.016349282 0.006750584 0.22333519
-0.31750697 -0.049733255 -0.008664045 -0.16493024 -0.30964816 -0.22048049 -0.07124118 -0.09016426
-0.06699535 -0.066698834 -0.1366663 -0.034966584 -0.24771076 0.08858328 0.015780343 -0.19690548
-0.21257181 -0.13535987 0.060823567 -0.044017494 0.061327673 -0.039983373 -0.04886353 -0.4927563
-0.15913069 -0.081395134 -0.1706608 -0.009497097 0.005701782 -0.4732066 -0.17582257 0.07097645
-0.016015876 -0.5346395 0.17108043 -0.0410064 -0.08517043 -0.0055237385 -0.19815516 0.020277718
-0.2525507 0.0022244398 -0.016281942 -0.011305545 -0.038286198 -0.16001816 -0.06157086 0.13239627
0.009391014 0.10868748 -0.03561941 -0.24102004 -0.014120929 0.0013714379 0.037230726 -0.2136828
-0.07315343 0.21445584 -0.17596436 0.026297815 0.05481047 0.12967 -0.014309446 -0.029855203
-0.17773777 0.13622573 0.17649578 -0.10329141 -0.26735482 -0.30894524 -0.45780614 -0.12383097
0.029422455 0.13856286 0.095026806 -0.11135553 0.048877325 -0.027579486 -0.024753628 -0.07214061
0.18170331 -0.13344231 -0.09839531 -0.012447543 -0.62889236 -0.15181531 0.05002409 -0.10495189
-0.2627585 -0.10266041 -0.16986465 -0.0012837776 -0.113232516 0.020960983 -0.19363053 0.16982207
-0.19922823 -0.06393482 -0.005427904 -0.07923377 0.04345622 0.16411111 -0.08210818 0.017856931
0.035403606 -0.10896446 -0.006122832 -0.16121499 -0.25186455 -0.023435818 0.11551758 -0.13555698
0.028843088 0.015493944 -0.018609043 -0.028859235 -0.07082786 -0.18714322 -0.25625893 0.05886044
0.18484847 -0.25048348 0.15635405 -0.2092373 -0.008203105 -0.25847542 -0.19412984 -0.14042512
0.21351057 -0.17136511 0.011802541 0.10380245 -0.16275978 -0.08233724 -0.09875729 -0.026221517
-0.13776271 -0.0060422723 0.09212754 -0.06076224 0.041924443 -0.25355163 -0.0018529806 -0.24151336
0.042587046 -0.02377636 -0.120181926 -0.008329941 -0.13496628 0.07170333 -0.0034803352 0.0042893104
0.06516645 -0.009618367 -0.15192682 0.033582862 -0.10609908 -0.24387069 -0.16484493 -0.1378047

fc2.bias f4 [256]
00000000: d6b7 823c a051 9e3d cd6b 0abe b6bf aabd
00000010: 5372 323e 22da 753e e25d 41bd 8a9f 073f
00000020: c4a3 44be 5525 95bd a40b afbd bf4f 213e
00000030: 174c 493d 3b40 ca3e 15be e7bc 2f7f 19bd
00000040: 2091 87bd f933 2e3d 3f9e 5ebd e3f4 29bd
00000050: 9a65 d83e 6010 1ebd 5671 273e e13f 55bd
00000060: d9f1 e7bc e361 c1bd 4588 69bd 6dcd 9fbd
00000070: 0362 a63d 3e07 fbbb 59f3 4bbf 28f3 bbbd
00000080: 8e32 d1bc c044 b93d 71a7 f4bb 0124 823d
00000090: 5914 373e 078a 1abe cf65 1c3e 6b17 3f3e
000000a0: 04ee 8c3d 156f 21bd 049f 503e 3a27 a3bd
000000b0: cc47 bdbc ffdb 09be 0c8f c1be 900b 74bd
000000c0: 7318 c2bd 1585 e83d 42cb e2bc ea46 133d
000000d0: 1ede 05be d117 9bbd 0ec7 f1bd 3865 25bc
000000e0: b684 b5bc edca 2dbe d39d 95bd fa70 50bd
000000f0: 6d8d 6bbd 3f8b c2bd d131 923c bfa6 3bbe
00000100: 0b33 1e3b 34ad b8bd add3 e0be a979 223e
00000110: d3f5 7e3c 95c1 d2be 8872 0dbc 2272 283e
00000120: 8ad9 afbe 249b 793d dcd5 c3be 4f0d 063f
00000130: 6cde 27bd d7a9 31bc 5de3 2dbe 4719 ff3d
00000140: 3335 f2be c331 3cbd 42d7 38be 6b5a 9cba
00000150: 8bde 99bd a66c adbd bbdc ff3e b242 dcbc
00000160: e4c6 143d 4291 5dbd 9308 7fbd 94c0 45bd
00000170: a30a 3bbc 8e06 8abd 7bcd 4d3d 74f4 a3bd
00000180: de2c f9bd 5683 503c a7fb 2ebe 984e 473e
00000190: a27b 1abd 8be1 05be 9a14 27bd 496b 9abd
000001a0: e616 59be 404f f3bd 6cd9 98be 7359 8fbc
000001b0: a6f4 fcbc 9f95 7abc 5b9a e8bc cc23 0e3b
000001c0: 1949 ccbd 27e3 c3be a26a bd3d 2be7 213d
000001d0: a348 e3bd c3a9 a9bc 3ca7 493c 8b43 bfbe
000001e0: 767c a7bd ec1f dbbc 345f 36be 3482 ebbc
000001f0: 6b34 8ebe 80dc 83bd f010 92be 5564 92bd
00000200: 02d8 9cbd 1066 1fbe 8f07 a7bc 03a9 5e3d
00000210: bede 4f3e 9c95 9fbd ce77 51bd d992 68bd
00000220: 2cbc 5a3d 5b8d fc3d a4e1 33bd b14d c5bc
00000230: 3af5 9cbc 8ad1 08bd 51b0 13bd f0e5 30bd
00000240: 2134 243e 0891 e6bd c507 e0be aafb 573c
00000250: 67d5 33bd f6d4 f7bd 17ef 1ebc 5fcc 99bd
00000260: 7c40 83bc b8f1 1c3e a66b 11bd d903 3dbe
00000270: 360d c3bd ebe8 06be 3227 afbc 0f41 5abe
00000280: bbb1 69bc 2298 5a3b 1dd8 babc 9a01 52be
00000290: 0e05 7fbe 99fe 1cbd 782a 1dbd f41b 04bd
000002a0: 60af 84be 49a9 5ebe 6f51 043e e2ac 24bd
000002b0: ac8e 05be 11b8 a6bd 4830 dabb c46d 27bd
000002c0: 95ac 52bd 8013 77bd 03bd 4bbe ef02 72bc
000002d0: d955 25be 1a83 77bd 98b7 80bd 7284 e83c
000002e0: b753 63bd 0555 3dbc 016c a03b 989e 93bd
000002f0: 5c37 4bbe 4554 d4bd a52d f4bd 8e70 c03d
00000300: bb3e bcbd 07ac ccbc 8f80 bfbd aabb 88bd
00000310: 9e5f 7ebd 7ae4 8fbd 40b5 6dbe f423 4d3d
00000320: ee79 19bd 33dd 11be 4d38 abbc de50 86bd
00000330: 9ca1 9cbe 1171 1ebe 34ba 0e3e 6959 6cbd
00000340: 3a4f bb3c 9878 c83b 798a df3d 00f5 bb3e
00000350: 410f ef3c 19b7 ad3d 879d d1bc f89d 2dbc
00000360: 5b54 e1bc e911 44bd 242c b6bd d0ac babc
00000370: 4586 09be ad39 b13b b442 c9bc f0ef ee3c
00000380: 5823 05bd 0cbf 71be 82ef 8fbd b7db 423d
00000390: 911c 65bd f858 153f 5bea 1abe eeb4 9abd
000003a0: 7bdc 88bd 7548 b23e 8312 413e 8f36 6a3c
000003b0: 925a 9ebd 9630 98bd 0e03 3dbd bb9e 54be
000003c0: 4fb3 373e c128 46bd 2351 7dbd 1658 04bd
000003d0: 5114 65bd 94f2 96bd 94db c7bc 67d3 55bd
000003e0: 0273 ddbd 053d dcbd a8b7 44be a993 56bd
000003f0: 28b5 12bd 2b47 82bd 1e4e 33bd 2471 dbbc
0.0159568 0.077304125 -0.13517685 -0.08337347 0.17426424 0.24008992 -0.047208674 0.5297781
-0.19203097 -0.07282511 -0.08547142 0.15753077 0.04914483 0.3950213 -0.02828888 -0.037474807
-0.06619477 0.042530034 -0.054350134 -0.041493308 0.42265016 -0.038589835 0.16351828 -0.052062873
-0.028313564 -0.094424985 -0.057014722 -0.07802854 0.08124163 -0.0076607754 -0.79668194 -0.09177238
-0.025536802 0.09046316 -0.0074662496 0.063545235 0.17878856 -0.15091716 0.15273212 0.18661277
0.068813354 -0.039412577 0.2037316 -0.07966466 -0.023105524 -0.13462828 -0.3780445 -0.05958134
-0.094773196 0.113535084 -0.027684812 0.0359563 -0.13073012 -0.07572902 -0.11805545 -0.010094933
-0.022158008 -0.16971941 -0.07305493 -0.050888993 -0.05750792 -0.09499215 0.01784602 -0.18325327
0.002413931 -0.09017411 -0.43911496 0.15866722 0.015561539 -0.41163316 -0.008633263 0.16449788
-0.34345657 0.06093897 -0.382491 0.5236406 -0.040983602 -0.010843716 -0.16981263 0.12455993
-0.47306213 -0.045945894 -0.18050864 -0.0011928802 -0.0751315 -0.08467989 0.4997309 -0.026887272
0.03632249 -0.054093607 -0.062264036 -0.04827936 -0.01141611 -0.067395315 0.05024479 -0.0800561
-0.12166761 0.012726625 -0.17088185 0.19463575 -0.03771556 -0.13074319 -0.04079113 -0.07539994
-0.21200141 -0.1188035 -0.2985338 -0.017498707 -0.030878376 -0.0152944615 -0.028393915 0.0021688817
-0.0997488 -0.3825924 0.09248854 0.0395271 -0.11097839 -0.020710832 0.012307938 -0.3735622
-0.08178036 -0.02674862 -0.17809755 -0.02874861 -0.27774367 -0.064385414 -0.28528547 -0.07148043
-0.07658388 -0.15566278 -0.020389346 0.0543604 0.20299813 -0.077922076 -0.051139645 -0.05678067
0.05340211 0.12331649 -0.04391636 -0.024084898 -0.019159902 -0.033402957 -0.03605682 -0.043188035
0.1603551 -0.11258131 -0.43755928 0.01318256 -0.04390469 -0.12101166 -0.009700558 -0.07509684
-0.01602196 0.15326583 -0.035503052 -0.18458499 -0.09524004 -0.13174789 -0.021380994 -0.2131388
-0.014263566 0.0033354838 -0.022808129 -0.20508423 -0.24904272 -0.03832874 -0.03837058 -0.03225322
-0.2591505 -0.21744265 0.1292169 -0.040203936 -0.13042706 -0.08140577 -0.0066585876 -0.040876165
-0.05143412 -0.06032133 -0.19896321 -0.014771207 -0.1614603 -0.060427763 -0.06285018 0.028383467
-0.05549976 -0.011555915 0.0048956876 -0.07207984 -0.19845337 -0.10367636 -0.119227685 0.09396468
-0.091916524 -0.024984373 -0.093506925 -0.06676419 -0.062102906 -0.07026 -0.23213673 0.050083116
-0.037469797 -0.14244537 -0.02090087 -0.06558393 -0.30592048 -0.15472819 0.13938218 -0.057702456
0.022864927 0.0061178915 0.109150834 0.36710358 0.029182078 0.08482189 -0.02558781 -0.010596745
-0.027506044 -0.047868643 -0.08895138 -0.022787482 -0.13430126 0.005408487 -0.02456794 0.029167145
-0.03250441 -0.23608035 -0.07028104 0.047572818 -0.055935446 0.5833888 -0.15128462 -0.07554041
-0.06682678 0.34820905 0.18854718 0.014295234 -0.07732119 -0.07431142 -0.04614549 -0.20763676
0.17939495 -0.04837871 -0.061844956 -0.032310568 -0.05592758 -0.07370487 -0.024396695 -0.052203562
-0.108129516 -0.10753826 -0.19210684 -0.052386913 -0.035817295 -0.063612305 -0.04377567 -0.026787348

fc3.weight f4 [1, 256]
00000000: e034 c63c b305 513c 8960 623d d531 e43c
00000010: f9be 42bd 35fe 483c 7015 333b db0c ca3c
00000020: 27f5 94bc 6b51 0d3c 6200 9bba 6ed2 26bd
00000030: b6f0 c93c 47db febc 5c94 c33b 052c 103c
00000040: 74c8 d03d df20 093e b015 1fbb 27e1 483b
00000050: 068e 123c 7743 90b9 45d7 10bd 790d 603d
00000060: 90aa df3c 9ea0 ea3a 5a9e c4bc 3744 ae3c
00000070: 2282 1ebd c062 9bbd f8f4 11bd 96b5 3bbe
00000080: 8340 6cbd 3229 2cbe 6aae 453d b90b efb8
00000090: bf0a a7bd c7da 47be 15b7 8e3c 3824 d43d
000000a0: c247 40bb bcfc 653d 682c 82bd e86e 2a3b
000000b0: bbc4 ec3b c4a0 06bd c28e b73c 8628 dabc
000000c0: ba98 2e3b a792 c1bd bc49 27bb 494d 28bd
000000d0: 33c1 2abd 4d69 99bb bce3 27bd 7a8a 483d
000000e0: 4819 023c 69bd c73c 3935 93bd cb80 693d
000000f0: d703 ad3b 6c0f c3bb 6ac0 1ebd d4ab 163d
00000100: 1670 203d bb04 b7bb 377d f9bc 08f2 c2bd
00000110: f2e7 a4bc 9427 933d 0a2e e2bd 6b16 84bd
00000120: 317d c4bc 67c8 833d 382b 3fbd d96b 03bd
00000130: 689b 3f3d 5618 9b3d 851d 603c 18d8 ed3c
00000140: 917c 71bb cfcd 793a ba94 babd 82c0 943c
00000150: d0a8 79bd 2616 abbd eea2 d8bb dc60 0e3d
00000160: 90c5 babd 2558 273a 914c a7bb 0f24 a0bb
00000170: fa5a 883d fee0 393d 2f7e 24bd 240b 59be
00000180: 99d0 8fbc f7a9 b13d 0fa7 1abe 7878 873b
00000190: b930 f2ba e4bd bdba 1440 41bd 6ddb b53e
000001a0: 1d3c 1abe 4207 553d 0737 00bd 19b4 683d
000001b0: f781 08bc 13ad dc3a 1183 973c 0e49 d33c
000001c0: 4890 a73b a01b b9bc eea0 c4bd f4b0 c23d
000001d0: 0783 833c 1b26 6cbc 3475 93bb 0b3c d7bc
000001e0: 35ed 6eba d5dc 013e 51dc 39bd 4160 0d3b
000001f0: b1d2 2fbd 0192 533c 06a9 bfbc 5081 023e
00000200: fa46 9f3a 411e ecbd 40cf a23a 2852 913d
00000210: 9259 ac3c 6407 58bd 15b9 00bb 3585 42bd
00000220: cb03 23bd 94d9 5d3d 26be 8dbd f67f 943c
00000230: 4b44 5abc 1ef3 5dbd 121d 273d 2877 9cbe
00000240: ff35 a4bc 56a8 11be fba1 16bd 61f5 9e3d
00000250: 5d27 08bc dc4f 07bd 5666 403b 1a1d 0b3a
00000260: a0ba 5abb c6c2 5d3c 12c0 26be 019c 3dbd
00000270: c93b 09bd 1ede 533d 293d 303b 9459 7fbd
00000280: 74e8 d3bb 3fb4 fdbd 2209 423b 2f33 383d
00000290: 861c adbc a3c8 023e 2824 3bba 6289 f63a
000002a0: 676a 473c 29f5 b5bd ea8c c63c b9ac 49be
000002b0: 5ae9 3a3c fdfe c03a f031 1c3c 3f09 34bd
000002c0: fe16 a0ba 5e03 f53b 901a 3cbd 012d ac3b
000002d0: 8dee 2bbd 7118 e13b 6cd7 25bb 44f4 0d3d
000002e0: 022e 05bc 6bdd 5cbd cb6e adbd 85c1 65bb
000002f0: bc9c 45bd f692 b03c 0190 86bc d105 f33b
00000300: 5c01 c33b 718c 87bd ec20 3fbc 904b 843a
00000310: b9b9 eebb c0f5 913d 2120 b7bc 83ea 62bc
00000320: e459 4c3d 5585 763c 4942 9ebb b84c 5bbc
00000330: 3ab8 fabc fae0 9bbe 8542 a53d a1fe 41b9
00000340: c378 1bbd 3127 2ebb 063b a33c e9a6 42bd
00000350: 6844 b33d 3c0f 5fbc 63ef f13b 1af4 c73b
00000360: c2a8 adbd 93db 8d3c f911 1c3d d193 86bd
00000370: 49b5 78bc 2b7e d13d 6957 4cbd 6a00 ddbc
00000380: 2983 b33c e8ce c33d fd11 323e c084 863d
00000390: 6014 b8ba 7c1b 82bc f71f 9a3b f19d 14bb
000003a0: 9b49 653c 296b debc a387 7f3c e971 8b3c
000003b0: a877 8f3b 136c 77bb 9cab b7bb 96c6 bebd
000003c0: 8cfb 993d 3b7b 14bb 6948 563e 6d6d b1bb
000003d0: 169d 633d 847a 9cba a67c 583b d908 98bb
000003e0: 51f3 4c3d 8422 023d 427b d13d 6a8e 07bc
000003f0: 14ce 85ba 5fec 3c3b 4ea6 fbbb c585 1dbb
0.024195135 0.012757706 0.055267844 0.027855793 -0.047545407 0.012267639 0.002732601 0.024664333
-0.018183304 0.008625369 -0.0011825676 -0.040728025 0.024650913 -0.031110419 0.0059686136 0.008799558
0.101944834 0.13391446 -0.0024274401 0.003065178 0.008944994 -0.00027516086 -0.035361547 0.05470035
0.02730301 0.0017900651 -0.02400129 0.021272762 -0.038698323 -0.075871944 -0.03563401 -0.18330988
-0.05767871 -0.1681259 0.048262037 -0.000113985916 -0.081563465 -0.1951705 0.017421285 0.10358471
-0.0029339646 0.05614923 -0.06356126 0.0026006047 0.0072256005 -0.03286816 0.02240694 -0.026630651
0.0026641325 -0.094518 -0.0025526127 -0.04108933 -0.041688155 -0.0046817423 -0.04098867 0.048960187
0.007940598 0.02438231 -0.07187886 0.057007592 0.0052799988 -0.005952766 -0.03875772 0.03678496
0.039169393 -0.0055852807 -0.030455215 -0.0951882 -0.020130131 0.07185283 -0.110439375 -0.064495884
-0.023985477 0.06434708 -0.046672076 -0.032085273 0.046779066 0.07573001 0.013678913 0.029033706
-0.003684793 0.0009529264 -0.091103986 0.018158201 -0.060952008 -0.08353834 -0.0066112196 0.03476034
-0.09119713 0.0006383679 -0.005105563 -0.004887111 0.066579774 0.045380585 -0.0401594 -0.21195656
-0.017555522 0.08674996 -0.1510279 0.004134234 -0.0018477655 -0.0014476147 -0.04718025 0.3551897
-0.15061994 0.052008875 -0.03130248 0.05681238 -0.008331767 0.0016836248 0.018495115 0.025791671
0.005113635 -0.02259618 -0.096010074 0.095064074 0.01605369 -0.014413382 -0.0045000557 -0.026273748
-0.0009114326 0.12681897 -0.045376126 0.0021572264 -0.04292554 0.012913228 -0.023396026 0.12744641
0.001215189 -0.11529208 0.0012421384 0.07095748 0.021038804 -0.052741423 -0.0019641567 -0.047490317
-0.03979854 0.054162577 -0.069210336 0.018127423 -0.013321946 -0.054186933 0.040799208 -0.3055966
-0.020045279 -0.14224371 -0.03677557 0.07761646 -0.008310166 -0.033035144 0.0029357872 0.00053067657
-0.0033375397 0.013535207 -0.16284207 -0.046291355 -0.03350428 0.0517255 0.0026891923 -0.062341288
-0.0064669196 -0.12387895 0.0029607494 0.044970687 -0.021131765 0.1277185 -0.00071388716 0.0018809254
0.012171364 -0.08884651 0.024237115 -0.19694795 0.011408174 0.001472443 0.00953339 -0.04395413
-0.0012213883 0.007477208 -0.04592377 0.0052543883 -0.041975547 0.0068693687 -0.0025305403 0.034656778
-0.008128645 -0.053922098 -0.08468398 -0.0035057974 -0.048245177 0.021554451 -0.016426088 0.007416465
0.00595109 -0.06618584 -0.011665564 0.001009332 -0.0072853235 0.07126951 -0.022354187 -0.013849857
0.049890414 0.015046437 -0.004829679 -0.01338499 -0.030605424 -0.3044508 0.08069328 -0.00018500771
-0.037956964 -0.0026573653 0.019925606 -0.04752246 0.08753282 -0.013614472 0.0073832734 0.006102097
-0.084794536 0.017316615 0.038103078 -0.065711625 -0.0151799405 0.10229143 -0.04988805 -0.026977737
0.021913128 0.095609486 0.17389674 0.06568289 -0.0014044158 -0.015882246 0.0047035175 -0.0022677148
0.0139946 -0.027150707 0.015596303 0.01702209 0.004378278 -0.0037753626 -0.005605174 -0.09315221
0.07518682 -0.002265646 0.2092606 -0.005414656 0.05556973 -0.0011938368 0.003303328 -0.0046397266
0.050036732 0.031771198 0.10228588 -0.0082737 -0.0010208511 0.0028827412 -0.007679737 -0.0024036032
