checkpoint_actor_1.pth (torch_old, 579665 bytes, 6 tensors)

fc1.weight f4 [512, 24]
0	0x3d530558	0.051518768
1	0xbcdd096e	-0.026982035
2	0x3c8c72fe	0.017144676
3	0xbd0fd290	-0.035112917
4	0xbdfa4323	-0.122198366
5	0xbc83047d	-0.015993351
6	0x3c8ce91e	0.017201003
7	0xbccb2f76	-0.024802905
8	0x3cd0dcfa	0.025495995
9	0x3c33f49c	0.010983612
10	0xbb603dd8	-0.003421655
11	0xbc291fd9	-0.0103225345
12	0xbd29672a	-0.04135815
13	0xbc9ef401	-0.01940346
14	0x3cd65a7b	0.026166191
15	0x3ce32ad1	0.027730377
16	0xb9da481c	-0.00041633926
17	0x3d31409e	0.043274514
18	0x3cd09f3e	0.025466558
19	0xbbf8ea13	-0.007596263
20	0x3c5402b2	0.012940096
21	0x3d31c69a	0.04340229
22	0xbc120612	-0.00891258
23	0x3cab637c	0.020921461
24	0x3d607a87	0.05480435
25	0xbc3d77ca	-0.0115642045
26	0xbd1bf51c	-0.03807555
27	0x3d9fa1d7	0.077945404
28	0x3c0485df	0.008088558
29	0x3dd8b559	0.10581464
30	0x3d260fac	0.04054229
31	0x3cc064e3	0.023485607
32	0x3d4ff46d	0.050770212
33	0x3d95e57a	0.0731916
34	0x3c69fc16	0.014281293
35	0x3d6ce182	0.05783225
36	0xbd0e05df	-0.034673568
37	0x3dc01367	0.09378701
38	0xbc2b9b5a	-0.01047405
39	0x3d7f2a0f	0.06229597
40	0x3c932c93	0.01796559
41	0x3cde77df	0.027156768
42	0x3d1ff040	0.03904748
43	0xbd9d01cb	-0.076663576
44	0xbd3e6f4e	-0.046492867
45	0x3ceac72a	0.028659422
46	0xbc9d128d	-0.019173885
47	0xbca1620e	-0.019700076
48	0x3d211df0	0.03933519
49	0x3d7affe9	0.06127921
50	0xbced7b95	-0.028989593
51	0xbca36b6a	-0.01994868
52	0x3df304ff	0.11866187
53	0xbb0c42d6	-0.0021402142
54	0x3c87fadd	0.016599113
55	0xbd1dc450	-0.038517296
56	0x3c9c69eb	0.019093474
57	0x3d5b37f2	0.05352015
58	0xbcf36a30	-0.02971372
59	0xbd4bc864	-0.049751654
60	0xbcb1b4b3	-0.02169261
61	0x3d71083c	0.058845744
62	0xbc33c7a4	-0.010972891
63	0xbbde17ce	-0.00677774
64	0x3bb3a4ae	0.005482278
65	0x3d0e83e5	0.034793753
66	0x3cd964ec	0.026537381
67	0xbd5ad52d	-0.053425957
68	0xbc0be402	-0.008538248
69	0x3e0503be	0.12989709
70	0x3bb81593	0.005617806
71	0xbd9adab8	-0.075612485
72	0xbcfdb060	-0.030967891
73	0xbd50714a	-0.05088929
74	0xbaef6495	-0.0018264229
75	0xbcf6b30a	-0.03011467
76	0x3d7547e7	0.059883025
77	0xbc3d86c9	-0.01156778
78	0x3bdedd7a	0.0068013044
79	0x3cfe2494	0.031023301
80	0x3d19da61	0.037561778
81	0xbd2abe11	-0.041685168
82	0xbcbbf6d7	-0.02294485
83	0x3d04aa16	0.03238877
84	0x3d08f083	0.033432495
85	0x3d14d31d	0.036334146
86	0xbd02bc4f	-0.031917866
87	0x3c311f1e	0.010810642
88	0xbce9e7f4	-0.028552987
89	0xbd2116d2	-0.039328404
90	0xbbe5c006	-0.0070114164
91	0xbbf668b7	-0.007519807
92	0xbd7917aa	-0.060813583
93	0xbb5fe430	-0.003416311
94	0x3c765063	0.015033814
95	0x3cce480f	0.025180845
96	0x3d287829	0.04113022
97	0xbc99c5ca	-0.018771071
98	0xbd21d6b3	-0.039511394
99	0x3bc1facc	0.00591979
100	0xbd561318	-0.052264303
101	0xbad57c53	-0.0016287662
102	0x3cb8cb37	0.022557838
103	0x39a655e4	0.0003172598
104	0xbb432c7f	-0.002978116
105	0x3cc5d3e6	0.024148893
106	0xbd3e927d	-0.04652642
107	0x3d455bab	0.048183125
108	0x3c9c5c4b	0.019086977
109	0x3cd2a4f2	0.025713418
110	0xbd000c94	-0.031261995
111	0x3d67c555	0.056584675
112	0x3db4d384	0.08829406
113	0x3b29d28f	0.0025912856
114	0xbced8318	-0.028993174
115	0x3d84be14	0.06481567
116	0x3ccbc52d	0.024874294
117	0x3d007277	0.031359162
118	0x3d5033f2	0.05083079
119	0x3d7c26c4	0.061560407
120	0x3cfa9f8e	0.03059366
121	0x3d242804	0.040077224
122	0xbcea1de2	-0.028578702
123	0xbd2654bb	-0.04060815
124	0x3cf9e704	0.030505665
125	0x3d641b0c	0.055689856
126	0xbc7571ab	-0.014980714
127	0xbd0666b7	-0.0328128
128	0x3d5358f0	0.05159849
129	0x3d7e6a47	0.062113073
130	0xbba1106e	-0.0049152886
131	0xbcd9ef1c	-0.026603274
132	0x3d14a4b5	0.03628989
133	0x3d842d49	0.0645395
134	0xbc84367f	-0.016139267
135	0xbd508c8f	-0.050915297
136	0x3c9ef964	0.019406028
137	0x3d7e1492	0.062031336
138	0xbd3784d9	-0.044804428
139	0xbd15e3d2	-0.03659422
140	0x3d46b13a	0.04850886
141	0xbc58d7bb	-0.013235028
142	0xbc140414	-0.009034175
143	0xbcd1d36d	-0.025613511
144	0xbc23c49f	-0.009995609
145	0xbd1f36fb	-0.038870793
146	0xbd2049dc	-0.039132938
147	0xbc87d615	-0.016581574
148	0x3d7ab77f	0.06121015
149	0xbd039781	-0.032126907
150	0x3b0e5d01	0.0021722915
151	0x3d1cb235	0.03825589
152	0x3b8bad7e	0.0042626252
153	0x3cbbdcdc	0.022932462
154	0x3d0904af	0.033451732
155	0x3d33de61	0.04391325
156	0xbbb9ddc4	-0.0056721885
157	0xbd2b967d	-0.041891564
158	0x3c8b309f	0.016990958
159	0x3cee3119	0.029076146
160	0xbd581e1a	-0.052763082
161	0xbd634ba3	-0.055492055
162	0xbd158fe5	-0.03651418
163	0xbd9af228	-0.07565719
164	0x3c949fee	0.018142667
165	0x3d0a43b9	0.03375599
166	0xbd44ec75	-0.048077065
167	0xbd2f9b94	-0.04287298
168	0x3d1bfd50	0.038083375
169	0xbc93c6f0	-0.018039197
170	0x3b13c1ae	0.0022545862
171	0x3e1fe7cb	0.15615766
172	0xbd96c5f7	-0.073619775
173	0x3daf4e8a	0.08559902
174	0xbc41678a	-0.011804471
175	0x3e166dbb	0.14690296
176	0x3b87cf28	0.004144568
177	0x3d0009c3	0.03125931
178	0xbc32042b	-0.0108652515
179	0x3d056026	0.032562397
180	0xbcc1d687	-0.023661865
181	0x3d674473	0.056461763
182	0x3cdec96b	0.027195653
183	0x3dcfa5e2	0.101390615
184	0x3d7b5d73	0.061368417
185	0x3d00351e	0.031300656
186	0x3b5e254f	0.003389675
187	0x3dd4e707	0.103956275
188	0xbd1b8840	-0.037971735
189	0xbcd0d22b	-0.02549084
190	0xbc429aee	-0.011877758
191	0x3dca31db	0.098727904
192	0x3b346e6a	0.0027531632
193	0xbd1fbca9	-0.03899828
194	0x3c10458c	0.008805644
195	0x3e0367bf	0.12832545
196	0x3bc73a67	0.00607996
197	0x3d8bc988	0.068255484
198	0x3d13de46	0.03610065
199	0x3e26e885	0.16299637
200	0x3d2f4c45	0.042797346
201	0x3d03782c	0.032097027
202	0x3cbbaa63	0.022908395
203	0x3e0af0bc	0.13568395
204	0xbd40c8f4	-0.047066644
205	0x3d876e73	0.066128634
206	0x3cc4f355	0.024041811
207	0x3e20070d	0.1562769
208	0x3d201a2b	0.039087456
209	0x3abd7965	0.0014455734
210	0x3c90fb84	0.017698057
211	0x3d6dc735	0.058051307
212	0xbd694859	-0.05695376
213	0xbc83dfde	-0.01609796
214	0x3cb25bc0	0.021772265
215	0x3dbd65f6	0.09247963
216	0x3d862c4a	0.06551416
217	0x3d8eb3b5	0.0696787
218	0xbd619b0c	-0.055079505
219	0x3d8bbb86	0.06822877
220	0x3a103b36	0.0005501987
221	0xbd4274ad	-0.047474552
222	0x3b649487	0.0034878568
223	0x3d673155	0.05644353
224	0x3d777458	0.06041369
225	0x3ae80f51	0.001770476
226	0xbc7bbab2	-0.015364336
227	0x3d934a23	0.07191875
228	0xbcfe6fc0	-0.031059146
229	0x3d032207	0.032014873
230	0x3d0329f0	0.032022417
231	0x3cce6430	0.025194257
232	0xbd21808b	-0.03942923
233	0xbd0ed2c5	-0.034868974
234	0xbc06c24e	-0.008225037
235	0x3d2c3a18	0.04204759
236	0x3ddee251	0.1088301
237	0x3e2866e3	0.16445498
238	0x3b05f2b0	0.0020438842
239	0x3d34aa6d	0.044107843
240	0x3d876467	0.06610947
241	0x3de1c84f	0.11024534
242	0x3bb48508	0.0055090226
243	0x3ce534c1	0.027979257
244	0x3c8a823a	0.0169078
245	0x3d9ed1fb	0.07754894
246	0xbd21b6b0	-0.039480865
247	0x3d06c7c8	0.03290537
248	0xbc4624b5	-0.012093713
249	0x3d825123	0.06363132
250	0x3c802bb0	0.015645832
251	0xbb3274be	-0.0027230228
252	0xbc809222	-0.015694682
253	0x3d7a791c	0.061150655
254	0x3c06bd4e	0.008223845
255	0xbd0d2f84	-0.034469143

fc1.bias f4 [512]
0	0x3e33eb05	0.17570122
1	0x3de5682e	0.11201511
2	0x3d9cbae6	0.076528355
3	0x3e1ae317	0.1512569
4	0xbe459479	-0.19294919
5	0xbce2a207	-0.027665151
6	0x3d1b2592	0.037877627
7	0xbe1e03b9	-0.15431108
8	0x3b772916	0.0037713698
9	0x3c6106d9	0.013734543
10	0x3c5091a2	0.012730034
11	0xbb856f8b	-0.004072135
12	0xbdf3f0a4	-0.11911133
13	0x3b82324a	0.00397328
14	0xbde8c47d	-0.11365602
15	0xbbc8147b	-0.006105957
16	0xbdba122f	-0.090854995
17	0x3e0ba135	0.13635714
18	0xbd45c026	-0.04827895
19	0x3e0d4ee8	0.13799632
20	0x3a2bddc7	0.000655618
21	0x3d0e9c4c	0.034817025
22	0x3e4d3113	0.20038252
23	0x3d4b3164	0.04960765
24	0x3e44373e	0.19161698
25	0x3dffbbf7	0.12487023
26	0xbbbbde7d	-0.00573331
27	0x3e26db03	0.16294484
28	0x3e296981	0.16544153
29	0x3a3acab3	0.00071255415
30	0xbe4c3dfb	-0.19945519
31	0x3c815bae	0.015790787
32	0x3dad4b1c	0.084615916
33	0x3d23599e	0.039880387
34	0x3cc8d0b7	0.024513585
35	0x3e34a69a	0.17641678
36	0x3dcc7528	0.09983283
37	0x3d04c8ff	0.032418247
38	0x3c256ea5	0.0100971805
39	0x3db2576e	0.08708082
40	0xbe4ea228	-0.20179045
41	0xbe2b60fb	-0.16736214
42	0x3e50c6b0	0.20388293
43	0x3d9e9f1c	0.077451915
44	0x3d8be41c	0.06830618
45	0xbbca9d7a	-0.0061833235
46	0xbda5f3bb	-0.081031285
47	0x3d2433b0	0.040088356
48	0x3e10831e	0.14112517
49	0xbdb0fb48	-0.08641678
50	0x3d05087b	0.03247879
51	0xbe24777b	-0.16061203
52	0xbded0a72	-0.11574258
53	0xbcbe9629	-0.023264961
54	0x3cfa7466	0.030573081
55	0xbe25187c	-0.16122621
56	0x3e106384	0.14100462
57	0x3e24ca38	0.16092765
58	0x3e01ea12	0.12686947
59	0x3ccc5819	0.024944352
60	0xbd462ee5	-0.048384566
61	0x3d9c3251	0.076267846
62	0xbdf4d4b1	-0.1195463
63	0x3cfbe42d	0.030748451
64	0xbe61a83b	-0.22036831
65	0x3c8289e6	0.015934896
66	0xbd1a84ed	-0.037724424
67	0xbe35a460	-0.17738485
68	0xbdff2b59	-0.1245944
69	0x3e40a4e2	0.18812898
70	0x3d7d4137	0.06182977
71	0x3e0593e6	0.130447
72	0xbe05b16e	-0.13055965
73	0x3e2d75cf	0.16939472
74	0xbdf27fdf	-0.11840796
75	0xbe4afc6c	-0.19822854
76	0xbe084231	-0.133065
77	0x3ddead1c	0.10872862
78	0x3e16d438	0.14729393
79	0x3e3040ac	0.1721217
80	0x3db3ba54	0.08775774
81	0xbdd3a646	-0.103344485
82	0x3d52e7db	0.051490646
83	0x3e02bb4b	0.12766759
84	0x3e07b211	0.1325152
85	0x3e503fab	0.20336787
86	0xbdc750ec	-0.097322315
87	0x3dd8c0e8	0.10583669
88	0x3db850f6	0.08999817
89	0x3dd85107	0.1056233
90	0xbdb17ab2	-0.086659804
91	0x3d0b3ca1	0.033993367
92	0xbc8a93c7	-0.016916169
93	0x3e4525d1	0.19252707
94	0xbde569f3	-0.11201849
95	0xbe49748a	-0.19673362
96	0xbae89092	-0.0017743281
97	0x3dcbe5d5	0.09955946
98	0xbcd594f6	-0.026072007
99	0x3e3b506d	0.18292399
100	0x3bc57e56	0.0060270233
101	0x3c3c6495	0.01149859
102	0xbd898073	-0.06713953
103	0x3d118d3e	0.03553509
104	0xbe4a8ae3	-0.19779544
105	0xbc247a58	-0.010038935
106	0xbdff74a9	-0.12473423
107	0x3d9bbf91	0.07604898
108	0x3e0da09a	0.13830796
109	0x3dfbbfd8	0.12292451
110	0xbdfd99c6	-0.123828456
111	0xbe2d7aa6	-0.16941318
112	0xbd9cd77e	-0.076582894
113	0x3e33646a	0.17518774
114	0x3e386d61	0.18010475
115	0x3da5ee9d	0.081021525
116	0x3e5fd8b7	0.21860014
117	0x3d98ebe8	0.074668705
118	0x3caebcb7	0.02133022
119	0xbd8d56ee	-0.06901346
120	0x3d63c841	0.0556109
121	0xbc9f7265	-0.019463727
122	0x3c38ed74	0.011287082
123	0xbd909804	-0.07060245
124	0xbdc5e85e	-0.09663461
125	0x3cce81c0	0.025208354
126	0xbe4d2e10	-0.20037103
127	0x3de229fa	0.11043163
128	0x3e46910c	0.19391268
129	0xbe02b79a	-0.12765351
130	0xbd4ca57a	-0.0499625
131	0x3e6054fb	0.21907417
132	0x3e2bce05	0.16777809
133	0x3dd2ddf0	0.102962375
134	0xbe03bc90	-0.128649
135	0x3dcc9a8a	0.099904135
136	0x3e60e0f9	0.2196082
137	0xbc9fdbb6	-0.019513946
138	0x3d938150	0.07202399
139	0xbb7f93fc	-0.0038998118
140	0xbbc45dbc	-0.0059926193
141	0x3e192b49	0.14957918
142	0x3d81045f	0.06299662
143	0xbe51e05e	-0.20495746
144	0x39aa96a1	0.00032537154
145	0x3e26614f	0.16248058
146	0xbd005df2	-0.031339593
147	0xbe538a8a	-0.20658317
148	0x3da14199	0.0787384
149	0xbe4e2e1d	-0.20134778
150	0xbe1a2c14	-0.15055877
151	0xbdbccc5c	-0.09218666
152	0xbe346e2f	-0.17620157
153	0x3d9b6610	0.07587826
154	0x3dd03268	0.10165864
155	0xbd2cd3eb	-0.04219429
156	0x3e4647bc	0.19363302
157	0xbdb0dc23	-0.08635738
158	0x3dc0f7cd	0.09422264
159	0xbe4e048c	-0.20118922
160	0x3dc293be	0.09500836
161	0xbd7bc4e8	-0.06146708
162	0xbd8d40da	-0.06897135
163	0xbe2098c6	-0.15683278
164	0xbe12e924	-0.14346749
165	0x3dee365c	0.11631462
166	0x3e0884d1	0.13331915
167	0xbc1ce749	-0.009576627
168	0x3b634ca9	0.0034683144
169	0x3d810941	0.06300593
170	0x3d540990	0.051766932
171	0x3e17510f	0.14777015
172	0x3d397e91	0.04528672
173	0xbd2c52fc	-0.042071328
174	0xbe18a47f	-0.149065
175	0xbe7cd4f1	-0.24690606
176	0x3cd72670	0.026263446
177	0xbe496fc8	-0.19671547
178	0x3caab9aa	0.020840485
179	0x3e2b939f	0.16755532
180	0xbc205754	-0.009786446
181	0xbd6de7f6	-0.058082543
182	0x3dc2e80c	0.09516916
183	0x3e59ee38	0.2128228
184	0x3e0ca231	0.13733746
185	0x3e0d63cf	0.13807605
186	0xbe34de15	-0.17662843
187	0xbdc97c95	-0.09838215
188	0xbe5c225c	-0.21497482
189	0xbd2e4ce0	-0.042553782
190	0xbca5e4bc	-0.02025067
191	0xbe1550fe	-0.14581677
192	0x3d9b3433	0.075783156
193	0x3e0188e6	0.12649879
194	0x3de9fa3d	0.11424682
195	0x3d89d19a	0.067294315
196	0x3d84438e	0.064581975
197	0xbd6d33fa	-0.057910897
198	0xbd9c02c2	-0.076177135
199	0x3e426605	0.1898423
200	0xbe515c29	-0.20445313
201	0xbb9b023b	-0.0047304905
202	0xbe6866e3	-0.22695498
203	0xbe1b36c1	-0.15157606
204	0xbd9ebacd	-0.07750473
205	0x3e1295e4	0.14314991
206	0x3dba540d	0.09098063
207	0xbdf687e1	-0.120376356
208	0x3cc360dc	0.023849897
209	0x3cf7a80c	0.030231498
210	0x3d9c5cc6	0.07634883
211	0x3e2b67d5	0.16738828
212	0x3e530a43	0.20609383
213	0x3cde67dc	0.027149133
214	0x3d363e0a	0.04449276
215	0xbd70af6b	-0.05876104
216	0xbe4e1ad1	-0.20127417
217	0x3ce4f8bc	0.027950637
218	0xbd93c9f9	-0.072162576
219	0x3cbec8f6	0.023289185
220	0x3e442546	0.19154844
221	0xbd85cb87	-0.065329604
222	0x3dd05926	0.10173254
223	0xbe1eb031	-0.15496899
224	0x3dd6f417	0.10495775
225	0xbc530710	-0.012880102
226	0xbcfaa63a	-0.030596841
227	0xbdbf3d3e	-0.09337853
228	0xbd2705bf	-0.040776964
229	0x3d5f6429	0.05453888
230	0xbdf1761c	-0.11790106
231	0x3e112eba	0.14177981
232	0x3e5bf7de	0.21481273
233	0x3e0d7db2	0.1381748
234	0xbdb6e321	-0.0893004
235	0x3e2327d0	0.15933156
236	0x3e55b274	0.20868856
237	0x3e0e3b0a	0.13889709
238	0xbe2d5250	-0.16925931
239	0xbe29c102	-0.16577533
240	0x3bf3b566	0.007437396
241	0xbe20366f	-0.15645765
242	0x3d9c0f75	0.07620136
243	0x3c4b8c02	0.012423517
244	0xbc9fd3bf	-0.019510148
245	0xbe291947	-0.16513549
246	0x3de8c575	0.11365787
247	0x3c9b17ad	0.018932188
248	0x3e12137b	0.14265244
249	0xbe4287ad	-0.18997069
250	0xbe04cf3c	-0.12969679
251	0xbe48ade2	-0.19597581
252	0x3e41a5e3	0.18910937
253	0x3deaf758	0.11472958
254	0xbd82c50a	-0.063852385
255	0x3d871503	0.065958045

fc2.weight f4 [256, 512]
0	0xbd453514	-0.048146322
1	0xbc720f0e	-0.014774097
2	0xbde93528	-0.11387092
3	0xbce70135	-0.028198818
4	0x3d0556a0	0.032553315
5	0xbd6d0457	-0.057865467
6	0xbc5b1b6c	-0.013373237
7	0xbce8fad5	-0.028439919
8	0xbbb864a7	-0.005627233
9	0xbe0cf8c9	-0.13766779
10	0x3cb3e2c9	0.021958726
11	0x3d6dfa46	0.058100007
12	0x3cce29f8	0.025166497
13	0x3c919211	0.017769845
14	0xbdad94bf	-0.08475637
15	0x3bb7cce1	0.0056091403
16	0x3c66a28a	0.014076838
17	0xbd7b9f17	-0.061431017
18	0x3c16fb9c	0.009215262
19	0xbb626ad2	-0.0034548533
20	0xbd81874a	-0.063246325
21	0x3de12e7d	0.10995195
22	0xbc560ec9	-0.0130650485
23	0xbd88d6ad	-0.06681571
24	0x3d169df8	0.036771744
25	0x3d3b2d47	0.045697477
26	0x3db98a9f	0.09059643
27	0x3c468cb9	0.012118512
28	0xbd1e5437	-0.038654532
29	0x3d805b15	0.062673725
30	0xbd69d0e4	-0.05708398
31	0xbdd1fc38	-0.10253185
32	0x3c5fce12	0.013659971
33	0xbc3b147a	-0.011418456
34	0x3ca22316	0.01979212
35	0xbc06dd8a	-0.00823153
36	0x3d935d40	0.071955204
37	0xbd307e63	-0.04308928
38	0x3e12574e	0.14291117
39	0xbc19ee06	-0.009395128
40	0xbdccafaf	-0.099944465
41	0x3c2b789a	0.010465765
42	0x3c1d84af	0.009614154
43	0x3b2b38b6	0.0026126332
44	0xbd8ea3af	-0.06964814
45	0xbbcd1734	-0.0062588695
46	0xbd7c3f09	-0.061583553
47	0x3d3fd463	0.046833407
48	0x3cb2fa46	0.021847855
49	0xbd0ab4c3	-0.033863794
50	0x3d4f3b0f	0.050593432
51	0xbc6cb785	-0.014448051
52	0xbda7a68a	-0.08186062
53	0xbd9ea5dc	-0.07746479
54	0xbb944368	-0.004524637
55	0x3e5e8a0c	0.21732348
56	0xbcb13e87	-0.02163626
57	0xbc3eed7f	-0.011653303
58	0xbdc4c999	-0.09608764
59	0xbd763bb4	-0.06011553
60	0xbd9b6ec8	-0.07589489
61	0xbd6c62ef	-0.057711538
62	0x3d80890b	0.06276139
63	0xbd3a3624	-0.04546179
64	0x3d3dc23a	0.046327807
65	0xbe40920b	-0.18805711
66	0xbd25bdc7	-0.04046419
67	0xbdaaf444	-0.08347371
68	0xbdcd74bb	-0.1003203
69	0x3c9f295b	0.0194289
70	0xbd70a6f4	-0.05875297
71	0xbd63a9ff	-0.055582043
72	0x3dc0efcb	0.09420737
73	0xbca22660	-0.01979369
74	0x3d07c1ee	0.03314393
75	0x3c796d73	0.015223849
76	0x3dbcfb32	0.09227599
77	0xbc19d2f2	-0.009388672
78	0xbd649b72	-0.055812307
79	0x3c55ed57	0.0130570745
80	0x3d92f897	0.07176321
81	0x3dc11bad	0.09429107
82	0xbce823f4	-0.028337456
83	0x3db98df8	0.090602815
84	0x3cec7b32	0.028867338
85	0xbc87bef4	-0.016570546
86	0x3d4fee68	0.05076447
87	0x3da5e43b	0.08100172
88	0x3d32eb0d	0.043681193
89	0xbc1d20a3	-0.009590301
90	0x3d4631ed	0.048387457
91	0xbd25f460	-0.040516257
92	0x3d0bbf5a	0.034118034
93	0xbd85f9a4	-0.06541756
94	0x3cd37d00	0.02581644
95	0x3bcd764a	0.0062702047
96	0xbcc57f21	-0.024108471
97	0x3d940176	0.07226841
98	0x3c6fd7b4	0.01463883
99	0x3b7934a7	0.0038025768
100	0x3d44f6c3	0.048086893
101	0x3c7493d9	0.014927828
102	0xbcf332b6	-0.029687267
103	0xbd4801fa	-0.04883001
104	0xbdf596b5	-0.11991636
105	0xbd3bca0c	-0.045846984
106	0xbccd8cd3	-0.025091564
107	0xbdba5bc4	-0.09099534
108	0x3cfbbf92	0.030730996
109	0x3c811afc	0.015759937
110	0x3d347498	0.044056505
111	0x3d2a0a4c	0.041513726
112	0xbcfc9478	-0.030832514
113	0x3c3f8e71	0.0116916755
114	0xbd562c90	-0.05228859
115	0xbca297db	-0.019847801
116	0xbd42853c	-0.047490343
117	0xbb6ab7f2	-0.0035815206
118	0xbb16a4fc	-0.0022986522
119	0x3e056874	0.13028127
120	0xbd640ff0	-0.05567926
121	0xbdec6f71	-0.11544693
122	0x3d9747bd	0.0738673
123	0xbd1910ce	-0.03736954
124	0x3d0be0d5	0.034149963
125	0x3c5bc6a1	0.013414056
126	0x3de0eca0	0.10982633
127	0xbe03330d	-0.12812443
128	0x3d61bf3c	0.055114016
129	0xbced0d9c	-0.028937154
130	0x3d0237a0	0.03179133
131	0xbd6d08f1	-0.057869855
132	0x3c3104c9	0.0108043635
133	0xbbb96233	-0.005657458
134	0x3d5355c0	0.05159545
135	0xbd6c61d0	-0.05771047
136	0xbcd68d79	-0.026190506
137	0x3d9c8998	0.076434314
138	0xbce22ac0	-0.027608275
139	0x3d2e7b27	0.042597916
140	0xbde4884d	-0.1115881
141	0x3dcdb420	0.10044122
142	0xbdc00bd0	-0.09377253
143	0x3def6727	0.116895966
144	0x3c633246	0.013866967
145	0xbca0aae7	-0.019612743
146	0x3bf20b1d	0.0073865787
147	0x3d93f745	0.07224897
148	0xbe1533f3	-0.14570598
149	0x3d1010c2	0.03517223
150	0xbbb5dbe2	-0.0055498937
151	0xbb68cd91	-0.0035522918
152	0x3bceda02	0.0063126097
153	0xbd86c29c	-0.065800875
154	0xbca9abfd	-0.020711893
155	0x3d04a5e0	0.032384753
156	0x3dfd6a32	0.12373771
157	0x3ca5ab38	0.020223245
158	0x3dc34312	0.09534277
159	0xbd4c4e0d	-0.049879123
160	0xbd27bb9e	-0.04095041
161	0xbd06be03	-0.032896053
162	0xbd9f07de	-0.077651724
163	0x3e2d7236	0.169381
164	0x3ca38e49	0.019965308
165	0x3dbad2a6	0.09122209
166	0xbe22120e	-0.158272
167	0x3db1d54a	0.0868326
168	0xbdb4f73c	-0.08836219
169	0xbd4ccf80	-0.050002575
170	0x3c7fc5d5	0.015611132
171	0x3c977821	0.0184899
172	0xbc98cf65	-0.01865358
173	0x3d8ca515	0.068674244
174	0xbcbd3202	-0.023095135
175	0x3deedc18	0.11663073
176	0xbcec5264	-0.02884788
177	0xbd1dea34	-0.03855343
178	0x3dd049bb	0.10170313
179	0xbd8e1e72	-0.06939401
180	0xbd938ead	-0.072049476
181	0xbd14d0b6	-0.036331855
182	0x3dc55ba3	0.09636619
183	0x3c7172fb	0.014736886
184	0x3c264a8e	0.010149611
185	0x3c9604c6	0.018312823
186	0xbd5ea368	-0.054355055
187	0x3d279a99	0.04091892
188	0x3cd93c44	0.026517995
189	0x3b0b956b	0.0021298777
190	0xbded0f7f	-0.11575221
191	0xbc910d47	-0.017706526
192	0xbca85037	-0.020546062
193	0xbd4794d4	-0.048725918
194	0xbd8f2d35	-0.069910444
195	0xbd069dd7	-0.03286537
196	0xbcb0b03e	-0.021568414
197	0x3d8a190b	0.06743058
198	0xbd4cce0d	-0.050001193
199	0xbce23aed	-0.027615989
200	0x3e4120c4	0.18860155
201	0xbdefb4b2	-0.11704387
202	0xbcf4b7b9	-0.029872762
203	0xbd8a7d5c	-0.06762192
204	0xbcae3082	-0.021263365
205	0xbd4cd3d7	-0.050006714
206	0xbd62a2a7	-0.0553309
207	0x3cba4be6	0.02274127
208	0x3c8c547c	0.017130129
209	0xbd442e4e	-0.047895722
210	0xbbb48582	-0.0055090794
211	0x3cc01c75	0.02345107
212	0xbcae6c97	-0.021292014
213	0x3d9fe47b	0.07807251
214	0xbe108b98	-0.14115751
215	0x3d464db2	0.04841394
216	0xbc7c0ac7	-0.015383429
217	0xbcee9168	-0.02912207
218	0x3d98d9b1	0.07463396
219	0xbda19901	-0.07890511
220	0xbdd863ad	-0.10565887
221	0xbcd2ce58	-0.025733158
222	0x3cddd947	0.027081145
223	0x3c13af2f	0.009013935
224	0x3afa5669	0.0019099239
225	0xbe43627c	-0.19080538
226	0xbcc12f0b	-0.023582002
227	0xbd09f472	-0.033680387
228	0x3dfc1a15	0.12309662
229	0x3d5dc8b6	0.05414649
230	0xbd3ff461	-0.046863917
231	0xbc5c6866	-0.013452625
232	0x3d5e319a	0.054246522
233	0xbc32c480	-0.010911107
234	0xbd2af1c7	-0.041734483
235	0xbd61d703	-0.05513669
236	0x3d298a13	0.041391443
237	0x3d5f15f0	0.05446428
238	0xbcae8240	-0.021302342
239	0x3ced12b1	0.028939577
240	0xbd5b7f4a	-0.05358819
241	0x3cee61bd	0.02909934
242	0x3ce6b46f	0.02816221
243	0x3dde7772	0.10862626
244	0xbc86d4a0	-0.01645881
245	0xbd2bd241	-0.04194856
246	0xbd8a77c3	-0.06761124
247	0xbc8bb9e4	-0.017056413
248	0xbdabf29d	-0.08395884
249	0x3d2d98ba	0.04238198
250	0x3d801f0e	0.06255923
251	0xbba74b0c	-0.005105382
252	0x3af3a5da	0.0018588856
253	0x3c110230	0.008850619
254	0x3d89d77b	0.06730553
255	0x3cb2e450	0.021837384

fc2.bias f4 [256]
0	0x3d1d3b38	0.038386554
1	0xbbe23da3	-0.0069043203
2	0x3c9b92a1	0.018990817
3	0x3d474781	0.048652176
4	0x3c95f696	0.018306058
5	0xba96b9ca	-0.0011499461
6	0x3bf34771	0.007424288
7	0x3ca1055a	0.019655872
8	0x3bfe867a	0.0077674957
9	0xbc5ec287	-0.013596184
10	0x3b1e4f72	0.002415624
11	0x3be38b3b	0.006944088
12	0x3c343454	0.010998804
13	0xbd9fab9c	-0.07796404
14	0xbc0ff5b4	-0.0087866075
15	0xbc13cd5e	-0.009021131
16	0xbd12a0fe	-0.035798065
17	0xbc3227f4	-0.010873783
18	0x3d4b73b8	0.049670905
19	0xbc2283b1	-0.009919093
20	0x3b358179	0.002769558
21	0xbc83275f	-0.016009985
22	0x3dab0ff2	0.08352651
23	0xbd0024c3	-0.03128506
24	0x3d847b21	0.064687975
25	0x3c369706	0.011144405
26	0xbd0c3205	-0.03422739
27	0xbd287d04	-0.04113485
28	0xbb91a865	-0.004445123
29	0xbc8ebbe0	-0.01742357
30	0x3c5331cd	0.012890291
31	0xbcffe9b5	-0.03123937
32	0x3d81ea67	0.06343537
33	0x3b241af5	0.0025040482
34	0x3c2ed8ab	0.010671775
35	0xbcc6d401	-0.024271013
36	0x3cacb8c4	0.021084197
37	0xbd7738ac	-0.06035678
38	0xbc635586	-0.013875371
39	0x3d1984cf	0.03748017
40	0xbc890fec	-0.016731225
41	0x3b39c09e	0.0028343569
42	0x3d699ec3	0.057036173
43	0x3c89298d	0.016743446
44	0xbd0d4b42	-0.0344956
45	0x3cc6a636	0.024249177
46	0x3c9e2740	0.019305825
47	0xbce47fce	-0.027892973
48	0xbd189d0c	-0.037259147
49	0xbd3cb3b3	-0.046069812
50	0xbd604e2d	-0.054762054
51	0x3d1d9304	0.038470283
52	0xbd84f3d7	-0.06491821
53	0x3d3fb6e2	0.04680527
54	0xbce2ad3b	-0.027670493
55	0x3b6d2e2d	0.0036190853
56	0xbca31ddb	-0.019911697
57	0x3d2d17a1	0.042258862
58	0xbcea4217	-0.028595967
59	0xbba17a24	-0.0049278904
60	0xbaf93206	-0.00190121
61	0x3c957ccc	0.018247984
62	0x3d01e171	0.03170914
63	0xbca8c213	-0.020600354
64	0x3cac01ee	0.020997014
65	0xbd9030e5	-0.07040576
66	0x3c022d00	0.007945299
67	0xbd1e2da5	-0.03861775
68	0x3d39f154	0.045396164
69	0xbcbab4d4	-0.022791304
70	0xbcc09e66	-0.02351303
71	0x3cbbece6	0.02294011
72	0xbca08aa7	-0.019597365
73	0x3cbfe61a	0.02342515
74	0xbb9d83d5	-0.0048069754
75	0x3ba8c19d	0.0051500336
76	0x3d1abe92	0.0377794
77	0x3c05e637	0.008172563
78	0x3d2c82fa	0.042117096
79	0xbca95b4c	-0.020673417
80	0xbd1cf606	-0.038320564
81	0x3cbb77ba	0.022884239
82	0xbd661ec7	-0.056181695
83	0xbd295792	-0.04134328
84	0x3d0bfa15	0.034174044
85	0x3c3c5bf5	0.011496534
86	0xbd243f1e	-0.040099256
87	0xbc65d62a	-0.0140281115
88	0xbd23d2ab	-0.03999583
89	0xbd4ea5b4	-0.050450996
90	0xbccb7b97	-0.024839206
91	0xbad9c8f0	-0.001661567
92	0x3d01db56	0.031703316
93	0x3cc10bf3	0.023565268
94	0xbb7ee5ea	-0.0038894364
95	0xbc69109c	-0.014225151
96	0x3b93be2d	0.0045087547
97	0xbd02ede5	-0.031965155
98	0xbc2a04f7	-0.01037716
99	0xbca639f2	-0.020291302
100	0xbc302fdd	-0.010753599
101	0x3cfeb70b	0.031093141
102	0xbd3368fc	-0.043801293
103	0x3bdb511b	0.006693018
104	0x3c96659c	0.018358998
105	0x3d26f857	0.04076418
106	0x3d5bd2ba	0.05366776
107	0x3b1d7400	0.002402544
108	0xbcbf7e49	-0.023375647
109	0xbc06a91b	-0.008219029
110	0xbcce2887	-0.02516581
111	0xbc1460c8	-0.009056278
112	0xbc5651f9	-0.013081067
113	0xbb76ba8a	-0.0037647807
114	0xb8d4bf6e	-0.00010144604
115	0xbd075ad1	-0.033045594
116	0xbd04c869	-0.03241769
117	0x3b6eae27	0.003641972
118	0x3c9fb2c0	0.019494414
119	0xbd1f5968	-0.038903624
120	0xbd1b42b7	-0.03790542
121	0xbd1108a0	-0.035408616
122	0xbcab569b	-0.02091532
123	0xbcae5f21	-0.021285595
124	0x39cdfd49	0.0003928936
125	0xbd37e56c	-0.044896528
126	0x3d18aff3	0.037277173
127	0xbd7d824d	-0.061891843
128	0x3d2bfb8e	0.041987948
129	0x3cc542e2	0.024079744
130	0xbb8b73ef	-0.0042557637
131	0x3cb1489d	0.02164107
132	0xbd706a53	-0.05869515
133	0x3cdb48cc	0.02676811
134	0xbaa556c6	-0.0012614361
135	0xbca74ad9	-0.020421432
136	0x3cd5580a	0.026042957
137	0xbccd1a4b	-0.025036952
138	0x3babe4f1	0.005245798
139	0xbc91abf4	-0.017782189
140	0xbc50bcf5	-0.012740363
141	0xbb110191	-0.0022126178
142	0xbd0fd730	-0.03511733
143	0xbce0056d	-0.027346337
144	0x3cfcb22a	0.030846674
145	0x3be77ca1	0.0070644175
146	0x3c53040d	0.012879384
147	0x3b629a5b	0.0034576866
148	0xbd03d704	-0.032187477
149	0x3c500cf7	0.012698404
150	0x3d857eae	0.06518303
151	0x3d0b2215	0.03396805
152	0xbc1cb858	-0.009565435
153	0x3d3ca44a	0.046055116
154	0x3d452358	0.04812941
155	0x3cc2a290	0.023759156
156	0xbd0b4d11	-0.034009043
157	0x3c0f7b7a	0.008757466
158	0x3cf7f947	0.030270232
159	0xbcc5e8da	-0.024158884
160	0x3ad091ee	0.0015912631
161	0xbd60c675	-0.054876763
162	0xbca0eb9c	-0.019643597
163	0xbcd40ef9	-0.025886046
164	0x3b3a9283	0.0028468675
165	0x3c739672	0.014867412
166	0xbacd4028	-0.0015659379
167	0x3b840cb0	0.004029833
168	0x3cf0326d	0.02932092
169	0x3d312732	0.04325027
170	0x3cba9203	0.022774702
171	0x3d1b8a75	0.03797384
172	0xbd222237	-0.03958341
173	0x3c061283	0.0081831245
174	0x3d1a8c81	0.03773165
175	0xbd0c221e	-0.034212224
176	0x3a0c6d01	0.0005356819
177	0xbc880afd	-0.016606802
178	0xbd27ceb7	-0.040968623
179	0xbc2cdad8	-0.010550223
180	0x3d1a78e0	0.03771293
181	0xbd24c3a4	-0.04022564
182	0x3c4eafbc	0.0126151405
183	0xbc7406f1	-0.014894233
184	0xbcad4f12	-0.021155868
185	0x3d0e38b6	0.034722053
186	0xbcb025b5	-0.021502355
187	0xbc7c4db4	-0.015399385
188	0x3ce374ab	0.027765593
189	0xbd1bcf1a	-0.038039304
190	0xbc952a5d	-0.018208677
191	0x3d0353c1	0.032062296
192	0x3ba1004b	0.004913365
193	0x3ae280ed	0.0017280855
194	0xbc8f1fd2	-0.017471228
195	0x3d0704db	0.032963615
196	0xbc4f82e0	-0.01266548
197	0x3c995bd7	0.01872055
198	0x3d149b1b	0.036280733
199	0xbd0117ac	-0.031516716
200	0x3d13e423	0.03610624
201	0xbc44e2ac	-0.012016933
202	0xbc473552	-0.012158709
203	0x3c3a4520	0.01136902
204	0xbd12c0bd	-0.03582834
205	0x3d2600fb	0.04052828
206	0x3cccb12a	0.024986822
207	0x3c8857dc	0.016643457
208	0x3cd37fb2	0.025817726
209	0x3c016631	0.0078978995
210	0x3d546413	0.05185325
211	0xbce10633	-0.027468776
212	0xbd54b998	-0.05193481
213	0x3c9f6bc7	0.019460572
214	0x3d3a1657	0.04543146
215	0xbd2660bd	-0.0406196
216	0xbc806411	-0.015672715
217	0xbd0c726f	-0.03428882
218	0x3d8a2bf4	0.06746665
219	0xbc886242	-0.016648415
220	0x3cce0b27	0.025151802
221	0xbc600562	-0.013673158
222	0xbb005301	-0.0019580724
223	0xbd140c53	-0.036144566
224	0xbb8f26aa	-0.004368623
225	0x3bf43b56	0.0074533625
226	0xbcfdc361	-0.030976953
227	0xbc95f0ae	-0.018303242
228	0xbd010b0d	-0.03150468
229	0x3ce23137	0.027611358
230	0xbd4243e7	-0.047428038
231	0xbca40c47	-0.020025386
232	0xbd259ef6	-0.0404348
233	0xbc4426c5	-0.011972134
234	0xbcb82aa9	-0.02248128
235	0xbd247926	-0.0401546
236	0xbc954050	-0.018219143
237	0xbcbab5dc	-0.022791795
238	0x3d41ad3c	0.04728435
239	0x3c8af9e2	0.016964857
240	0xbcd3ba7e	-0.025845762
241	0xbc732d41	-0.014842332
242	0xbc6a543e	-0.014302311
243	0x3ce2709c	0.027641587
244	0x3d721943	0.059106123
245	0xbcd08f32	-0.025458906
246	0x3cb80319	0.022462415
247	0x3c28f32a	0.010311881
248	0xbbddb2e3	-0.0067657097
249	0xbd1c6c4a	-0.03818921
250	0xbd67f0f1	-0.056626264
251	0x3ba5f044	0.0050640423
252	0xbc469bd3	-0.012122112
253	0x3cc750a8	0.024330452
254	0x3c1b2187	0.009468443
255	0x3c72e205	0.014824395

fc3.weight f4 [2, 256]
0	0xbdc5a16b	-0.09649929
1	0x3cc04fd7	0.02347557
2	0xbd5a1894	-0.053246096
3	0x3d194df0	0.037427843
4	0x3d7842f7	0.060610738
5	0xbe6e232e	-0.23255607
6	0x3d70ba07	0.05877116
7	0x3d03964a	0.03212575
8	0xbc81f474	-0.015863635
9	0xbccc82fc	-0.024964802
10	0x3dbe3cfa	0.09288974
11	0xbc9cc63b	-0.019137492
12	0x3b819902	0.0039550075
13	0x3a8bb70f	0.0010659414
14	0xbcd43b10	-0.02590707
15	0x3cd04a40	0.02542603
16	0xbcdae938	-0.026722535
17	0xba8540ac	-0.0010166368
18	0x3be5d00d	0.007013327
19	0xbcc0453d	-0.023470515
20	0xbbcf3977	-0.006323989
21	0xbe40790e	-0.18796179
22	0x3dc5d03a	0.09658857
23	0xbd90e71b	-0.0707533
24	0x3cd99207	0.02655889
25	0x3e07f627	0.13277493
26	0xbe8d821a	-0.27638322
27	0x3be6eb6c	0.0070471074
28	0xbd818699	-0.063245006
29	0xbe0a87b3	-0.13528328
30	0x3ad88b52	0.0016521013
31	0xbd6f84db	-0.05847631
32	0xbdf1ffbd	-0.11816356
33	0xbc8ca593	-0.017168796
34	0xbdddcc89	-0.108300276
35	0x3c7363c2	0.014855327
36	0xbb0fcf88	-0.0021943767
37	0xbe473e6c	-0.19457406
38	0x3cf0490a	0.029331703
39	0xbd0549c4	-0.03254105
40	0x3d924a88	0.07143122
41	0x3c2ad26f	0.010426148
42	0x3cd126cc	0.025531195
43	0x3d04b700	0.032401085
44	0xbdaa3e84	-0.08312705
45	0xbd4c8d3b	-0.049939375
46	0xbdf7c83d	-0.12098739
47	0xbd118bb4	-0.035533622
48	0xbc1c805f	-0.00955209
49	0xbe199e3b	-0.15001766
50	0xbb4c0b66	-0.0031134724
51	0x3cc23fbf	0.023712037
52	0xbd8eb8de	-0.06968854
53	0x3cf51c4f	0.029920725
54	0xbc71a39d	-0.014748481
55	0x3d095bd6	0.033534847
56	0x3cbe82a4	0.023255654
57	0x3a8a7cb2	0.0010565727
58	0xbea7bb61	-0.32760146
59	0xbdfcb01a	-0.12338276
60	0xbe1b7345	-0.1518069
61	0x3bf06cba	0.00733718
62	0xbcdac13f	-0.026703475
63	0xbd489b0d	-0.048975993
64	0x3ccfea3a	0.025380243
65	0x3e81234e	0.25222248
66	0xbc836313	-0.016038453
67	0xbd41e573	-0.04733796
68	0x3d6d64f9	0.057957623
69	0xbd0faccf	-0.035076912
70	0x3c1f2936	0.009714415
71	0xbc13a5bd	-0.009011683
72	0x3bec605f	0.0072136368
73	0xbe09181b	-0.13388102
74	0x3db03639	0.08604092
75	0x3aea4629	0.0017873693
76	0xbc1f307d	-0.00971615
77	0xbe583bb9	-0.21116532
78	0x3d4201da	0.047365047
79	0xbe529d14	-0.20567733
80	0xbc5afded	-0.013366205
81	0xbd435649	-0.04768971
82	0x3dd95ef7	0.10613816
83	0xbc5f61fe	-0.013634203
84	0xbc9a77fe	-0.018856045
85	0xbc3b267a	-0.011422748
86	0xbbab4587	-0.005226794
87	0x3c4c0e77	0.012454621
88	0xbc9c9461	-0.019113721
89	0xbdeab8f1	-0.11461056
90	0xbda983dc	-0.08277103
91	0xbde91ae7	-0.11382084
92	0xbe2a3343	-0.16621117
93	0xbd0ca5bc	-0.034337744
94	0x3b849eaa	0.0040472345
95	0xbd858e12	-0.065212384
96	0xbd0dda15	-0.034631807
97	0xbcd8deb9	-0.02647339
98	0xbcdae4e3	-0.02672047
99	0xbba84bbf	-0.0051359828
100	0x3d825a64	0.06364897
101	0x3c8e3d0e	0.017363098
102	0x3d0c163e	0.0342009
103	0xbcf0f56e	-0.029413905
104	0xbd944d63	-0.07241323
105	0xbc9bfaac	-0.019040428
106	0x3c5b1e48	0.013373919
107	0xbcde33d9	-0.027124332
108	0x3ca137dc	0.019679956
109	0x3c2bd36b	0.010487418
110	0xbd175322	-0.036944516
111	0xbd48159a	-0.048848726
112	0xbc59d069	-0.013294318
113	0xbda3e65c	-0.08002922
114	0xbd094d9e	-0.033521287
115	0xbc49af29	-0.012309828
116	0xbbd280d1	-0.0064240475
117	0x3c83f3c1	0.016107442
118	0x3b8c859e	0.0042883893
119	0x3e1b2288	0.15149891
120	0xbd51e676	-0.051245175
121	0xbe103202	-0.14081576
122	0xbf039789	-0.514031
123	0x3d8c5598	0.06852263
124	0xbc8ad31b	-0.016946366
125	0xbaa25a32	-0.00123865
126	0xbc5c4e05	-0.013446336
127	0xbf1109d3	-0.56655616
128	0x3d2fef34	0.04295273
129	0xbc2bc561	-0.0104840705
130	0x3e10e6ae	0.14150497
131	0xbd2dd85b	-0.04244266
132	0xbe57b53c	-0.21065229
133	0xbe5e887f	-0.21731757
134	0xbe31338e	-0.17304823
135	0xbec915bc	-0.39274395
136	0xbd6c5c89	-0.057705436
137	0xbdae4be2	-0.08510567
138	0xbdc3f816	-0.09568803
139	0xbd208fe5	-0.03919973
140	0x3da14ba4	0.078757554
141	0xbcdce64a	-0.02696528
142	0xbd92f9c4	-0.07176545
143	0x3c935b1e	0.017987784
144	0x3e7cbfa9	0.24682488
145	0x3c35ea86	0.011103278
146	0xbe0f9d45	-0.14024837
147	0x3e48b9fe	0.196022
148	0xbd160f5e	-0.03663575
149	0x3bfe75ee	0.007765523
150	0x3cc86828	0.024463728
151	0xbd1c3ac1	-0.03814197
152	0x3bf26e99	0.007398438
153	0x3cc96c39	0.024587737
154	0xbda36d81	-0.079798706
155	0xbc819648	-0.01581873
156	0xbcb4cde5	-0.022070834
157	0xbcc3c7d3	-0.023898995
158	0x3c12034f	0.008911922
159	0x3b700f9e	0.0036630402
160	0x3d001b7a	0.031276204
161	0x3d95a9ec	0.07307801
162	0xbdb93593	-0.090434216
163	0x3b9653af	0.0045876126
164	0xbc8820fa	-0.016617287
165	0x3c57b866	0.013166523
166	0xbd2a7c70	-0.04162258
167	0xbd2fd47b	-0.042927247
168	0x3c4db6f4	0.012555826
169	0x3d97079f	0.073745005
170	0xbe3552b6	-0.17707333
171	0x3d3e3602	0.046438225
172	0xbc290684	-0.010316495
173	0xbe38e596	-0.1805633
174	0x3d9ee00d	0.07757578
175	0x3bfef120	0.007780209
176	0xbd59e7c6	-0.053199552
177	0x3c25a9f2	0.010111319
178	0xbcd0059a	-0.025393296
179	0xbcdec1ba	-0.027191985
180	0xbd5104ac	-0.051029846
181	0xbd3eb7cf	-0.046562012
182	0x3d9655f1	0.07340611
183	0xba2a860e	-0.0006504961
184	0x3e42772b	0.18990771
185	0x3da992d2	0.08279957
186	0xbe2e79c0	-0.17038631
187	0x3c529279	0.012852305
188	0xbe02dbfa	-0.12779227
189	0x3cca7e52	0.024718437
190	0xbd6ca725	-0.05777659
191	0x3d9d6da2	0.076869264
192	0xbcffc8dd	-0.031223709
193	0xbd8606aa	-0.0654424
194	0xbd8f46be	-0.06995915
195	0xbd8620b7	-0.065492086
196	0xbc24cda5	-0.010058795
197	0xbdea9815	-0.114547886
198	0xbc869cf2	-0.01643226
199	0xbe879d43	-0.2648717
200	0x3ca5b788	0.020229116
201	0x3b4df1f4	0.0031424733
202	0xbd8b0ebc	-0.0678992
203	0xbbbe3ee2	-0.005805836
204	0xbc708390	-0.014679804
205	0x3c736670	0.014855966
206	0xbcc1a6c2	-0.023639087
207	0xbeb79a86	-0.3586008
208	0x3c8428e7	0.016132785
209	0xbcf04556	-0.029329937
210	0xbe0e0b4b	-0.13871495
211	0xbd38d540	-0.045125246
212	0xbde0ebf1	-0.10982502
213	0x3ba22ea9	0.00494941
214	0x3d128224	0.035768643
215	0x3dc83c22	0.097770944
216	0xbdf06865	-0.11738662
217	0xbc010ae2	-0.00787613
218	0x3d2f7ce8	0.04284373
219	0x3c57d012	0.013172166
220	0x3d3ddc09	0.04635242
221	0x3d44aea5	0.048018117
222	0xbe33eb0e	-0.17570135
223	0xbe77fff7	-0.24218737
224	0xbd31153d	-0.043233145
225	0xbd4e45a7	-0.050359394
226	0xbc5d7ed8	-0.013519011
227	0xbce031f7	-0.027367575
228	0xbbb476c1	-0.0055073206
229	0x3c91286e	0.017719474
230	0xbced6f29	-0.02898367
231	0xbbc305f7	-0.005951639
232	0x3ac3d269	0.0014940026
233	0xbc778bf4	-0.015109051
234	0xbbed4281	-0.007240594
235	0xbcf1bbf4	-0.029508568
236	0xbc6f3f1f	-0.014602452
237	0xbd615e6f	-0.0550217
238	0xbdcaa756	-0.09895198
239	0x3e5ca202	0.21546176
240	0xbd7a34f4	-0.061085656
241	0x3c8413d3	0.016122734
242	0x3b5308f8	0.003220139
243	0xbcf62424	-0.03004653
244	0x3d655cc4	0.05599667
245	0xbea916c8	-0.33025193
246	0x3bf89f42	0.0075873444
247	0x3cb4dfaa	0.022079308
248	0xbe21e623	-0.15810446
249	0xbc577ba6	-0.013152039
250	0xbd6b6ada	-0.05747495
251	0x3d21ed7d	0.039533127
252	0xbc041722	-0.008062156
253	0xbc38b853	-0.011274415
254	0xbc649d56	-0.013953527
255	0x3bfa4d6d	0.0076386244

fc3.bias f4 [2]
0	0x3c8a9d18	0.016920611
1	0xbcebf782	-0.028804544
