checkpoint_actor_0.pth (torch_old, 579665 bytes, 6 tensors)

fc1.weight f4 [512, 24]
000000 5f 1b 9b 3d 00 b3 c6 bc 41 da 14 3d ce f8 87 bd
       0.0757358 -0.024255276 0.036340956 -0.066392526
000010 4b da 4e bd d8 c2 6f bc 49 15 15 3d 5b b7 65 bd
       -0.05050115 -0.014633857 0.036397252 -0.056083065
000020 b2 a2 25 3d 89 61 57 3c df e6 cc bb 20 3b 83 bd
       0.04043836 0.013145813 -0.006253108 -0.064077616
000030 a2 0b 84 bb d0 cc d9 bd 96 28 bf 3c 0a 32 d5 bc
       -0.004029707 -0.10634768 0.023334783 -0.026024837
000040 5a a8 b9 bb 3b 2e 0e 3d ef 63 fc bb 1c 3e b4 bc
       -0.005665821 0.034712058 -0.0077023427 -0.022002272
000050 db 3e 66 3c b2 bf 10 be c7 5d 2c bd e5 7f d5 3b
       0.014053072 -0.14135626 -0.04208162 0.0065154904
000060 5a 44 a4 3d b2 25 b2 3d 4a e6 28 bd 98 7a 0b 3d
       0.080208495 0.08698596 -0.041235246 0.03405246
000070 4c b8 ab 3d cc fe c6 bd c4 1e 19 3d a0 2c a7 bc
       0.08384761 -0.097165674 0.037382856 -0.020407021
000080 6b 29 a3 3d 19 22 39 3e 01 30 eb 3c d5 63 3e 3d
       0.07966884 0.18079413 0.028709413 0.046481926
000090 63 71 85 3d 4b 53 41 be e3 93 81 3b 25 ac 50 3d
       0.065157674 -0.1887943 0.003954397 0.05094542
0000a0 54 c4 33 3d ee 69 19 3e 2d a5 37 3d 96 bc 89 3d
       0.043888405 0.14981815 0.04483526 0.06725423
0000b0 c2 74 2e 3d 3a 44 a9 bd 2e 51 5b bc 38 66 fe 3d
       0.042591818 -0.08264966 -0.013386054 0.124218404
0000c0 03 66 50 3d 97 1b 71 3d b2 10 d9 bc ff f6 ec 3c
       0.050878536 0.058864202 -0.026497219 0.02892637
0000d0 da 78 20 3e 12 47 05 3d bd 65 9c 3c 39 b0 29 3c
       0.15671101 0.03253848 0.019091481 0.010356956
0000e0 1b 18 13 3d 76 a2 57 3d 4e 5e 75 bc 93 3e 82 bc
       0.03591166 0.05264517 -0.014976097 -0.015898978
0000f0 ad 13 ae 3c 6d 32 9a 3d d9 b8 76 3b ba cb dd 3c
       0.021249617 0.07529149 0.00376468 0.027074683
000100 70 d7 a6 3c 0d fb 0f 3d 17 fb 5e 3c 90 52 64 3c
       0.0203664 0.03515153 0.013609669 0.0139357
000110 8e f2 27 3d f1 39 d7 3d 38 87 ef bb 4f 2d 07 bc
       0.041002803 0.10509098 -0.0073098205 -0.0082505485
000120 59 90 3f 3b 4f e5 ac bb cd de 8f 3c c6 f0 84 bd
       0.0029230325 -0.005276359 0.017562294 -0.064912364
000130 99 ca 26 3e ec db 67 bd e9 8c d6 3c c0 5c 77 bb
       0.16288222 -0.05660622 0.026190238 -0.0037744492
000140 43 14 90 3d 54 43 94 ba 26 1d 0c bd dc e4 cf 3c
       0.070351146 -0.0011311569 -0.034207486 0.025377683
000150 fc aa 9a 3d c9 bd 79 3d 08 de 30 bd 1e ff 78 3b
       0.07552144 0.06097201 -0.043180496 0.0037993859
000160 80 3d 2c 3b 1f 6c ad bb e5 d0 ae 3c f8 7a 68 bc
       0.0026281774 -0.00529243 0.021339843 -0.014189474
000170 a2 3e 99 bd 4f dc 21 3e 96 b4 31 3d dd a4 97 3c
       -0.074826494 0.15806697 0.04338511 0.01851123
000180 ab 6c d5 39 49 28 01 bd b9 ad 30 bd c9 1f 16 bc
       0.0004070749 -0.03153256 -0.043134425 -0.009162852
000190 04 44 14 bd 4c f4 9e 3c e7 1c 9b 3c f9 ea 71 bc
       -0.036197677 0.0194036 0.01893468 -0.0147654945
0001a0 02 16 29 bd 71 7a 3c 3c 4b 78 32 bd d9 11 bf 3c
       -0.041280754 0.011503802 -0.04357175 0.02332394
0001b0 25 de b9 3c 10 f6 26 3d 32 e4 e7 bc 15 f3 01 3d
       0.022688935 0.040762007 -0.028307054 0.03172596
0001c0 80 82 2d 3d 08 b5 64 bc 08 30 89 bd 96 a4 14 3d
       0.042360783 -0.013959177 -0.06698614 0.036289774
0001d0 ef 21 4c 3c d4 83 2b 3d b1 56 52 3c 36 4f 07 3d
       0.012459262 0.041873768 0.012838052 0.033034526
0001e0 80 6c c4 3c 20 3c b6 bb 39 9f 21 bd 23 17 95 bd
       0.023977518 -0.0055613667 -0.039458487 -0.072798036
0001f0 35 b8 be 3c 02 3b 4d 3d ef d8 d3 bc 32 20 85 bd
       0.023281196 0.050105102 -0.025860278 -0.065002814
000200 e6 99 3f 3d 78 53 9f 3c 16 4b 64 bc 16 f0 5f bd
       0.04677763 0.01944898 -0.0139339175 -0.054672323
000210 e9 50 06 3d 9f 4a 3c 3d 71 18 ce bc 42 c2 a1 bd
       0.032792006 0.0459696 -0.025158139 -0.0789838
000220 e4 5d 80 3c 10 92 b9 3c df 33 7f bd 56 8a e7 3b
       0.01566977 0.022652656 -0.062305328 0.0070660515
000230 f5 5e 3d 3d c9 79 36 bd 93 5f d9 bc dc d6 93 3c
       0.046233136 -0.044549737 -0.026534831 0.018046789
000240 10 0b 7a bb 82 98 a6 bc 96 ec a1 bc 8a 85 a6 bc
       -0.0038153566 -0.020336393 -0.019766133 -0.020327348
000250 a5 5b 95 3d da a1 0f bd 43 73 b0 3c 81 5a 0d 3d
       0.072928704 -0.035066463 0.021539336 0.03451014
000260 ec 7a 22 3c bf c5 22 3d 5c 85 f1 3c 36 d7 2b 3d
       0.009917002 0.039739367 0.029482536 0.041953288
000270 54 55 81 3c 06 8e 8c bd 47 5a 55 3c f3 22 de 3c
       0.015787758 -0.06863026 0.013022012 0.027116274
000280 af 25 42 bd 56 ab 20 bd 8d f3 c9 bb ef 9e 91 bd
       -0.04739922 -0.0392259 -0.0061630667 -0.07110392
000290 4a 6f 53 3d 76 bf ee bc f5 35 91 bc e8 f3 1c bd
       0.051619805 -0.02914403 -0.017725924 -0.038318545
0002a0 6c b9 72 3d 52 9f be 3a d7 97 57 3d 07 cd ce 3d
       0.059258863 0.0014543331 0.05263504 0.100976996
0002b0 87 4a 8e bd e3 2d 04 3d c2 01 1e 3d 09 d9 bb 3d
       -0.06947809 0.032270323 0.038575895 0.091722555
0002c0 25 8b b5 3c ae 2e 46 3d 8d 20 08 bd cd 2d 10 3c
       0.022161076 0.04838436 -0.033234168 0.008799982
0002d0 af 32 a3 bb bd 3d 1c ba a4 29 9e 3b 90 fb 9e 3d
       -0.004980407 -0.00059601275 0.0048267413 0.077628255
0002e0 39 d6 a8 3d 9a 0e 3b 3d bf 07 9d bb 0d 71 b1 3d
       0.08243985 0.045668222 -0.004792183 0.08664141
0002f0 cb e4 da ba d8 0b af bd 67 54 a4 bc e3 bb a6 3d
       -0.0016700266 -0.08547181 -0.020059777 0.08141305
000300 04 91 a6 3c 63 07 1b bd e8 64 55 bc 2c 6b b7 3c
       0.02033282 -0.03784884 -0.013024546 0.02238997
000310 f0 9c 27 3c a3 55 6b bc 88 ce 69 3c 3c b8 69 3d
       0.010230288 -0.014363679 0.014270432 0.057060465
000320 df 60 76 3d fe 14 fd 3c 0e 3e 6a 3c cb 66 cc 3d
       0.060150977 0.030893799 0.014297022 0.09980544
000330 0c e4 22 bd 68 35 0b bb 73 d0 7c 3c 66 93 f6 3d
       -0.039768264 -0.002124155 0.015430558 0.12039833
000340 c3 08 5e 3d 7c a6 98 bb 1a b9 87 3b 9a 9c ea bb
       0.054207575 -0.0046585184 0.004141939 -0.0071597816
000350 2b 52 2f bd c2 0e 76 bd b9 9c 06 3c 6b 62 df 3c
       -0.04280297 -0.060072668 0.0082160765 0.027268609
000360 16 1a 5a 3d 9b 8b 99 3d 38 99 0e bd 81 15 cc 39
       0.053247534 0.07497331 -0.03481409 0.00038925934
000370 35 15 20 bd 1d 55 cf bb f1 95 c2 3c c4 b4 3a bc
       -0.039082725 -0.006327285 0.023753138 -0.011395637
000380 67 3e 53 3d e8 82 f3 3b ea 24 e0 bc c7 00 8f bc
       0.051573183 0.0074313767 -0.027361352 -0.017456425
000390 3c 30 83 bd bd 70 ae 3d 0c 0c a4 3c 04 71 83 bd
       -0.06405684 0.08517597 0.020025276 -0.064180404
0003a0 8b 90 0f bd 78 ff e6 bb 7d cc bb bb 56 dd 53 3d
       -0.035049956 -0.007049497 -0.005731164 0.051724754
0003b0 09 28 2e 3d 3f 1d 47 3e 0b b2 94 3b e4 4d 5c 3d
       0.04251865 0.1944475 0.004537826 0.05378522
0003c0 1f 4f 87 3d 09 dd 92 3d d7 35 17 3d 37 bc d8 bb
       0.06606888 0.07171065 0.03691658 -0.006614234
0003d0 73 14 ee 3b 92 93 c7 3d a1 44 04 bc 65 44 dd ba
       0.0072656213 0.09744944 -0.008073003 -0.0016881345
0003e0 0d db 3e bc c0 d9 e4 3c 3e 6b a5 bc 72 88 e9 bc
       -0.011648905 0.027935863 -0.020192739 -0.028507445
0003f0 23 91 ca bc 85 e6 74 3d 0e 38 e2 bc 83 cd 76 bd
       -0.02472741 0.059790153 -0.02761462 -0.060254585

fc1.bias f4 [512]
000000 d6 63 3c 3e a9 d5 c2 3d 7e a4 5a 3d 34 51 0c 3e
       0.1839746 0.09513409 0.05337953 0.13702852
000010 26 01 1f be 4e d5 de bc 2d 9c ef 3c bc f0 2c be
       -0.15527782 -0.027201321 0.029249275 -0.16888708
000020 c5 7a 55 bc 4e c1 8a 3c 62 65 24 3c c7 01 89 3b
       -0.013029759 0.016937878 0.010033937 0.00418112
000030 97 54 e5 bd e2 b6 9a 3c 54 11 d2 bd 02 33 14 bd
       -0.11197775 0.018886033 -0.10257211 -0.036181457
000040 24 37 b0 bd c3 95 e6 3d ef 13 97 bd 9d 79 e9 3d
       -0.08604267 0.112590335 -0.07376849 0.11400149
000050 03 14 65 bb c8 75 fa 3c bc 43 3a 3e de ec 21 3d
       -0.0034954555 0.03057374 0.18189901 0.039532535
000060 8b b4 3b 3e d7 ab e2 3d ca aa ea bc ba 3e 29 3e
       0.1833059 0.11067932 -0.028645892 0.16527835
000070 7e d4 2a 3e 26 c1 d1 bb 1d 84 52 be 81 c7 5e 3c
       0.16682622 -0.006401199 -0.2055821 0.01359737
000080 c8 19 ac 3d c2 50 f5 3c 25 62 92 3c 9d 29 38 3e
       0.08403355 0.029945735 0.017869065 0.17984624
000090 cc cf d4 3d 89 14 65 3c 20 bb 97 3c f3 91 97 3d
       0.103911966 0.013981947 0.018521845 0.074008845
0000a0 3e 17 80 be b0 66 0e be f2 fc 4a 3e d9 ad c3 3d
       -0.25017732 -0.1390636 0.19823053 0.09554643
0000b0 ee ba a3 3d 13 03 71 bc 7a 77 6d bd 5c 95 44 3d
       0.079946384 -0.014710206 -0.05797527 0.047994003
0000c0 bc 08 1b 3e e4 b8 ed bd 41 07 c9 3c d7 7a 46 be
       0.1514005 -0.11607531 0.024539592 -0.19382797
0000d0 54 1d db bd 54 8f fb bc ad 6b df 3c ef 24 44 be
       -0.10698953 -0.030707993 0.027273024 -0.19154714
0000e0 1f 4e 06 3e d5 d1 0d 3e 8a 07 c3 3d a9 f6 45 3b
       0.13115738 0.13849576 0.09522922 0.0030206835
0000f0 bd 6c 79 bd 00 ff 94 3d 3e 9b 02 be 33 39 30 3d
       -0.060894717 0.072752 -0.12754533 0.0430233
000100 02 f4 44 be 0b 7c c5 3c e3 83 cc bc 96 6c 3d be
       -0.19233707 0.024107 -0.024965232 -0.18498453
000110 44 34 00 be a0 97 3d 3e 0a 2a 95 3d ce 39 17 3e
       -0.12519938 0.18514872 0.07283409 0.14768144
000120 4b fd 06 be 0f bf 29 3e 3e 60 fc bd fd d5 5c be
       -0.13182561 0.1657679 -0.12323044 -0.21566005
000130 14 bc df bd 81 e8 f0 3d 9e 43 21 3e be 2a 27 3e
       -0.10924545 0.117630966 0.1574845 0.16324899
000140 c3 a3 bc 3d 54 27 f1 bd b7 52 3e 3d 40 c5 03 3e
       0.092109226 -0.11775079 0.0464656 0.12868214
000150 bf d9 15 3e 76 a5 60 3e c0 75 c7 bd 12 cd d2 3d
       0.14633845 0.21938118 -0.09739256 0.1029302
000160 8f d2 d2 3d 59 df e5 3d 03 07 7e bd a4 2f 7e 3d
       0.10294067 0.11224241 -0.062018406 0.062057152
000170 7b b2 83 3c 06 62 2a 3e 1d e1 a0 bd d3 35 4a be
       0.016076317 0.16638955 -0.07855437 -0.19747095
000180 a9 21 af bc 84 99 e6 3d 5a 7f b1 bc 1e c3 32 3e
       -0.021378355 0.112597495 -0.021667171 0.17457244
000190 43 64 dd 3b 9e 33 04 bd 90 85 82 bd 7c a6 4e 3d
       0.006756337 -0.03227579 -0.06373131 0.05045174
0001a0 c9 4c 41 be d6 fb db bb 44 e8 08 be 70 4c ad 3d
       -0.18876947 -0.006713371 -0.13369852 0.08461845
0001b0 14 4f 19 3e 85 c5 07 3e 96 f4 e9 bd 35 dc 21 be
       0.14971572 0.13258941 -0.11423604 -0.15806659
0001c0 94 b8 9c bd 04 50 2a 3e 2d 61 40 3e 32 d6 a6 3d
       -0.07652393 0.16632086 0.1878707 0.08146323
0001d0 ce d8 4f 3e 62 55 a0 3d da 10 8a 3b 02 1f 75 bd
       0.20297548 0.078287855 0.0042134346 -0.059844024
0001e0 70 99 e9 3c bb ce 52 bb ba 50 3f 3c bd cf 85 bd
       0.028515548 -0.0032166678 0.011676962 -0.065337636
0001f0 c6 24 e8 bd b0 ac 52 bc e4 24 51 be d3 ee 03 3e
       -0.11335139 -0.012858555 -0.20424229 0.12884073
000200 b3 a1 3e 3e de f2 c9 bd e1 0e 17 bd 1d 11 46 3e
       0.18616371 -0.09860776 -0.036879424 0.19342466
000210 67 61 30 3e 96 d1 fe 3d ac e3 11 be 0d b9 ce 3d
       0.17224656 0.12442319 -0.14247006 0.100938894
000220 5f c3 5b 3e a1 36 65 3c 4d 6c 91 3d 42 86 03 bc
       0.21461247 0.013990075 0.07100735 -0.008027615
000230 c4 12 05 3c 91 dc 1f 3e 13 3a 50 3d e0 46 4f be
       0.00812215 0.15611483 0.050836634 -0.2024188
000240 1f 04 32 3c 3f 18 20 3e a5 23 9b bc 18 bb 2a be
       0.01086524 0.15634249 -0.018937895 -0.16672933
000250 e8 00 c8 3d cf f1 43 be 04 04 16 be 2a 23 b6 bd
       0.09765798 -0.19135211 -0.1464997 -0.08893426
000260 fb ac 2b be d3 9d 97 3d 2f 7b cc 3d 7c 3e 3d bd
       -0.16765206 0.074031495 0.09984433 -0.046202168
000270 59 48 49 3e ca 43 d8 bd 78 8e ee 3d ee 4a 42 be
       0.19656505 -0.10559805 0.116482675 -0.18973896
000280 da 2b d5 3d ca 9e c8 bd 7f ec 62 bd ca 30 07 be
       0.10408755 -0.097959116 -0.05540132 -0.13202205
000290 e4 4f 21 be 00 de ee 3d 44 7e 0e 3e bf f1 08 bc
       -0.15753132 0.11663437 0.13915354 -0.008358418
0002a0 0f 51 64 bc 90 a2 ad 3d 7d 0a 8e 3d ca 05 0a 3e
       -0.0139353415 0.08478272 0.06935594 0.13478771
0002b0 9b ec 0e 3d cb d0 0e bd 56 14 3b be dd c1 58 be
       0.034893613 -0.03486709 -0.18269476 -0.21167703
0002c0 b0 5e 97 3c 1f 1f 4a be e6 6a 88 3c f0 7e 18 3e
       0.018477768 -0.19738434 0.016652536 0.14892173
0002d0 25 71 05 bc 2f aa 89 bd 46 b2 b0 3d 1f cc 5d 3e
       -0.008144652 -0.06721913 0.08627753 0.21659897
0002e0 33 e0 27 3e f3 17 b3 3d a1 b0 36 be 29 68 dc bd
       0.16394119 0.08744802 -0.17840816 -0.107620545
0002f0 63 1b 74 be d3 5e 2e bd 37 69 d3 bc 6b 40 1c be
       -0.23838572 -0.0425709 -0.025807006 -0.15258949
000300 4e bb 8a 3d 27 07 fc 3d b5 39 03 3e ba db 9f 3d
       0.06774007 0.12306052 0.12814982 0.078055814
000310 a2 52 47 3d bc a3 63 bd 06 5e c6 bd 94 2c 3a 3e
       0.04866279 -0.05557607 -0.09685902 0.18181068
000320 b8 f8 60 be ab 62 70 3c 03 ec 61 be f5 9c 16 be
       -0.21969879 0.014671962 -0.22062688 -0.14708312
000330 c5 8d a7 bd c1 59 07 3e ac b0 ce 3d c1 3d 09 be
       -0.08181337 0.13217832 0.10092291 -0.13402463
000340 72 32 37 3d 7f ee 10 3d 4e bb 86 3d 7d 75 1f 3e
       0.044725843 0.035383698 0.06578694 0.15572162
000350 02 b3 4e 3e d3 e1 26 3d c7 fc 05 bb 0c ad b8 bc
       0.20185474 0.040742707 -0.0020444856 -0.022543453
000360 a3 de 6b be 3f 7b ff 3c 21 66 75 bd 3b c4 99 3c
       -0.23034148 0.031186698 -0.05991185 0.018770328
000370 78 e3 55 3e a7 42 a6 bd 8c 76 d4 3d 1c 22 20 be
       0.20887554 -0.08118182 0.103741735 -0.15638012
000380 ee 75 dd 3d 64 a2 ab 39 39 e4 92 bc 51 86 ae bd
       0.10813509 0.00032736652 -0.01793109 -0.085217126
000390 4a 08 32 bd 76 14 76 3d 95 c1 05 be 57 cb ff 3d
       -0.043464936 0.060078107 -0.13062127 0.12489956
0003a0 a7 6f 61 3e aa 0c fa 3d f1 64 a8 bd 66 2a 31 3e
       0.22015248 0.12209447 -0.08222378 0.1730133
0003b0 45 db 52 3e 7d c8 0d 3e 3b c9 1f be f8 d7 23 be
       0.20591457 0.13846011 -0.15604107 -0.16000354
0003c0 0d 92 d5 3c cb 9e 2f be 9a cb b9 3d 6a 84 82 3d
       0.026070619 -0.17150418 0.09072037 0.06372912
0003d0 36 c3 45 bd 41 4a 1a be aa 76 de 3d 33 f6 c5 3c
       -0.04828187 -0.15067388 0.10862477 0.024165248
0003e0 26 80 1d 3e 6b ac 45 be 5a d0 03 be c9 0e 42 be
       0.15380916 -0.19304053 -0.12872449 -0.18950953
0003f0 3f 3e 41 3e b8 5a 04 3e d8 58 80 bd aa 81 c4 3d
       0.18871401 0.12925231 -0.062669456 0.09595044

fc2.weight f4 [256, 512]
000000 ee 7a fb bc 56 1a ec 3d b5 16 85 be 82 3d b3 bd
       -0.030698266 0.11528461 -0.25993887 -0.08751966
000010 a1 9f 00 3d 29 c4 c0 bd 3c 17 3e bd 31 d0 87 bb
       0.031402234 -0.094124146 -0.046408877 -0.0041446914
000020 4b ec df 3b ce ad 00 be ac 30 90 bc ec 30 1f 3d
       0.0068335882 -0.12566301 -0.017601334 0.038865015
000030 85 2e 01 3d 4b 83 28 3c f5 88 20 bd 84 4f 58 3d
       0.031538505 0.010285209 -0.039193112 0.052810207
000040 e1 b9 a2 bb 15 63 2c bd 30 c5 fb bc f2 1c 3c bc
       -0.004966006 -0.04208668 -0.030733675 -0.0114815105
000050 f5 e2 36 bd 20 62 d0 3d 01 0c e9 bc a5 ba aa bc
       -0.044650037 0.10174966 -0.028448107 -0.020840952
000060 3c 86 56 3c 4e f1 2d 3d 02 a8 c5 3d 0e 71 6d 3c
       0.013093527 0.042466454 0.096511856 0.014492286
000070 d2 0f a3 bc dc 53 4a 3d e5 6a a8 bd 01 ee 3b bd
       -0.019905005 0.04939638 -0.082235135 -0.045881275
000080 2f 2f cd 3c 6b 32 8f bb 0d 66 9a 3c cd 8d ea bc
       0.025046913 -0.004370024 0.01884749 -0.028632069
000090 22 16 36 3d f4 68 20 bd ef 23 11 3e 47 72 6e 3a
       0.0444547 -0.03916259 0.14173864 0.0009096008
0000a0 b1 f6 c6 3d 64 5b a3 3c d1 de 2a 3c 0d d9 8c bc
       0.097150214 0.01994104 0.0104291 -0.017193342
0000b0 a2 5c f6 bc b5 dc 58 bd 78 01 e3 bd f7 ed 82 3b
       -0.030073468 -0.052944858 -0.110842645 0.003995653
0000c0 eb 82 aa ba d3 88 39 bc cf 2c 2a 3d 99 31 b6 bc
       -0.0013008987 -0.011324125 0.04154664 -0.022240447
0000d0 22 1a c4 bd 18 23 53 bd a9 6a bf 3c 8f 36 45 3d
       -0.09575297 -0.05154714 0.02336629 0.048147734
0000e0 b2 17 0e bc ed 4b 77 bd d0 2d 05 bd 18 57 fd bc
       -0.008672642 -0.060375143 -0.032514393 -0.030925319
0000f0 d5 56 42 bd e8 ea a6 bd 2e e5 31 3d 30 77 f1 3c
       -0.04744609 -0.081502736 0.043431453 0.029475778
000100 0c d1 a5 3d aa 2a 44 be 00 eb 45 bd 4b fb 34 bd
       0.08096513 -0.191569 -0.048319817 -0.044184964
000110 9f 5e 8d bd 1c 1f f4 3c f4 4a 80 bd 2d ac b2 bd
       -0.06902813 0.02979999 -0.06264296 -0.08724246
000120 c4 4c 9b bc 23 ce 03 bd 8d 34 1c bd f6 ee 73 bc
       -0.018957503 -0.03217901 -0.038136054 -0.014888516
000130 b7 4f 5b 3d 60 52 b6 3b 29 c0 7f bd 26 6d 03 3d
       0.05354282 0.005564019 -0.062439118 0.032086514
000140 e9 eb 0e 3d 53 3c d3 3d 8d 60 79 bc 2b 9b 2e 3d
       0.03489295 0.1031424 -0.015220773 0.04262845
000150 1d c7 4c 3d 35 0e dd 3c 70 66 95 3d 1b 46 28 3d
       0.049994577 0.026984314 0.07294929 0.041082483
000160 27 d1 d2 3c 01 38 c4 bc f2 a2 35 3d e7 13 4c bd
       0.025734497 -0.023952486 0.04434485 -0.049823668
000170 01 b8 88 3c 3a e6 32 bd de 37 0d 3d ee 6e a5 3d
       0.016689302 -0.043676592 0.034477107 0.08077799
000180 3b 9a 3a be bb 85 83 3d 6c 8a 3a bb 1b 57 c5 bb
       -0.18222897 0.064219914 -0.0028463854 -0.0060223467
000190 1b 7c de 3d c0 19 2b 3d 08 6c 61 bc a1 6a 73 bd
       0.10863515 0.041772604 -0.013758667 -0.05942786
0001a0 cc d3 4e bd 25 e7 a1 bd c4 8f 6d 3d 38 85 64 bd
       -0.050494954 -0.079054154 0.057998434 -0.05579111
0001b0 65 be cc 3c 87 08 0f 3d 78 26 e6 3c 78 62 cc 3d
       0.024993131 0.03492024 0.028094515 0.09979719
0001c0 f1 ae 50 bd dc 11 83 3c 52 86 98 bd 7e ec 1d bc
       -0.050948087 0.015999727 -0.074474946 -0.009638904
0001d0 4e 85 60 bb 57 f5 a6 3d 4a 35 4f 3c 0b 64 50 3d
       -0.0034259143 0.081522636 0.012646982 0.05087666
0001e0 16 42 c9 bd 53 4e 94 ba 4b 6d 4e 3d 79 55 07 bd
       -0.09827058 -0.0011314846 0.0503972 -0.033040497
0001f0 e9 ab e8 3c f7 d3 4e 3d 29 05 d8 3c cf 28 db bc
       0.028402286 0.050495114 0.026369648 -0.026752857
000200 2b 4e 71 3d f8 d3 54 bd 7d 42 b9 3b 1a 8d 24 3c
       0.058912437 -0.05195996 0.005653678 0.010043407
000210 bc 0e 9d 3b fd bd 09 ba c2 ff 28 3d e3 9e 54 bd
       0.0047930162 -0.0005254446 0.041259535 -0.05190934
000220 ee 2c 0f bd 80 a8 94 3d d2 98 25 bd 29 37 79 3d
       -0.034954958 0.07258701 -0.040428944 0.06084362
000230 f3 90 8b bd 30 8f 8a 3d 1d 24 ff bd 44 cc 0e 3e
       -0.06814756 0.06765592 -0.1245806 0.13945109
000240 a2 9f c4 3c 27 6e cb bc a2 50 bc 3c 6e 13 4f 3d
       0.0240019 -0.024832798 0.022987667 0.05055564
000250 25 3d 75 bd 89 b3 89 3d 31 8c 1b 3c 05 93 91 bd
       -0.059872765 0.06723697 0.009493873 -0.0710812
000260 3c 8b 8a 3c fb 1f a7 bd 71 a0 de bc 43 34 5c 3c
       0.016912095 -0.08160397 -0.027176114 0.013440195
000270 d1 7e 03 3e 70 f8 67 bc 25 dc 6f 3d e8 24 6e bc
       0.12841345 -0.014158353 0.058559556 -0.014535166
000280 46 a5 93 bd e8 89 16 bd 55 bc 8c bd ba da e6 3d
       -0.07209258 -0.03675261 -0.06871859 0.112721875
000290 5e 94 df 3c 02 b5 5e 3d c1 16 68 be e8 09 6a 3d
       0.027292427 0.05437184 -0.2266493 0.057138354
0002a0 1b b3 4b be da f5 e4 bc 88 04 8b bc 41 bb e9 bc
       -0.19892542 -0.027949262 -0.016969934 -0.028531672
0002b0 c2 92 4e bb 65 9d 95 3d c4 4b b4 3c 16 a0 c4 3d
       -0.003152058 0.07305411 0.022008784 0.096008465
0002c0 5b 66 eb bc f8 8e ef bc f9 c8 65 3d 43 96 3b bd
       -0.02873533 -0.029242977 0.056099866 -0.045797598
0002d0 3f 27 ab bc 04 5e 3e bd 0a 49 cc 3d a7 53 24 3d
       -0.020892737 -0.04647638 0.099748686 0.04011884
0002e0 0d 64 4c 3d c9 30 06 3e e2 9f a6 bd 08 49 c7 3d
       0.049900103 0.13104548 -0.08135964 0.097307265
0002f0 e2 48 19 3c 08 66 5b ba c5 37 41 bb 40 fb 14 bd
       0.0093557555 -0.0008369391 -0.0029482704 -0.036372423
000300 81 18 2f 3b e3 ab 3f bd 62 26 97 bd 79 8d 8a bd
       0.0026717486 -0.046794783 -0.07380368 -0.06765265
000310 f8 65 89 bb f7 44 86 3d 84 2b 04 bd e4 55 50 bd
       -0.004193064 0.06556123 -0.032268062 -0.05086316
000320 8e a3 29 3e 74 29 b8 bd e1 cb 04 bd 74 0f 4c bd
       0.16566297 -0.089922816 -0.032420997 -0.049819425
000330 3a 67 54 bc be f9 83 bd df 18 6f bd 6b eb dc 3c
       -0.012964064 -0.06444119 -0.05837333 0.026967725
000340 ed 23 95 3c 2e 7e 20 bd bc 75 3e 3c af 24 9f 3c
       0.018205607 -0.039182834 0.01162475 0.019426672
000350 20 a2 87 bd 5b b6 80 3d 05 41 aa bd 37 26 4f 3d
       -0.0662272 0.062847815 -0.08313183 0.050573554
000360 9b 41 45 bd 91 af d3 bc 47 97 62 3d 0b 3a db bc
       -0.04815827 -0.025840553 0.05532005 -0.026761075
000370 d6 8d 67 bd e8 15 0e bd ef 86 04 3d de 32 f0 bc
       -0.05653175 -0.03468886 0.032355245 -0.02932113
000380 02 7d 55 bd 59 33 ec bd 39 65 2f bc f6 e4 2f bd
       -0.05212117 -0.11533231 -0.010705286 -0.042942964
000390 da 34 9a 3d e8 fd 82 3d e3 99 fb bc 6c bc 9e bc
       0.07529612 0.06396085 -0.030713027 -0.019376956
0003a0 b2 7d 7b 3d e8 f3 eb bc 88 70 d1 bc 2a 9e f5 bb
       0.06139917 -0.028802827 -0.025566354 -0.0074956613
0003b0 32 cc c9 3c 49 0c 0f 3d 9b 5d f7 bc d8 ab bf 3d
       0.0246335 0.034923825 -0.030196002 0.093589485
0003c0 73 0a 31 bc 70 10 00 3d 2a 77 50 3d f4 72 b0 bd
       -0.010805714 0.031265676 0.050894894 -0.086156756
0003d0 24 17 4c bb 08 eb 51 bd 5f 7e d7 bc 9f a4 2a bd
       -0.0031141723 -0.051249534 -0.026305376 -0.0416609
0003e0 05 17 9a bd c3 79 62 3d 7e 5a 78 3d 18 f0 d0 bb
       -0.07523922 0.055291902 0.060633175 -0.0063762777
0003f0 35 1c de 3c 1e 16 1a 3d 71 92 73 3d 73 42 10 3c
       0.02711306 0.03761875 0.05946583 0.008804905

fc2.bias f4 [256]
000000 22 f6 0d 3d 58 6e b1 bc 3b 4b 31 bc 38 74 20 3d
       0.03465856 -0.021659061 -0.010821159 0.039173335
000010 1c 7d 23 3a 6e 62 3b bc 5b 01 0b bc 4d 08 4b 3c
       0.00062365993 -0.011437042 -0.00848421 0.012392116
000020 50 46 83 3c b1 a8 79 bb d6 67 05 3d 6c 90 e6 ba
       0.016024739 -0.0038094933 0.03256973 -0.0017590648
000030 ad 9a 7b 3b a8 96 ab bd 14 2b 3a 3c a1 a7 28 bc
       0.0038391754 -0.08378345 0.01136281 -0.010293872
000040 d2 b4 fd bc 06 c4 e8 bc 2d 2f 51 3d 46 61 02 bc
       -0.03097001 -0.028413784 0.05107038 -0.007957762
000050 6b 1f 80 3b 7c 6d f1 bc d8 c0 8e 3d 98 c9 12 bd
       0.0039099953 -0.029471152 0.06970376 -0.035836786
000060 c4 f9 67 3d 94 46 b9 3c 29 a4 7a bc 9c bc 8d bd
       0.05663468 0.022616662 -0.015297928 -0.0692074
000070 b4 7f 37 bc 6d 61 2f bc 83 c8 7a 3c 50 5f d4 bc
       -0.01119988 -0.01070438 0.015306595 -0.025924355
000080 0c ff b2 3c 24 56 db 3c 5b 64 6e bc 82 2c 05 bd
       0.021850131 0.026774473 -0.014550294 -0.03251315
000090 fd 14 ea 3c 95 26 39 bd 2f c7 ca bc 27 0d ab 3c
       0.028574461 -0.04520281 -0.024753181 0.020880295
0000a0 29 92 0b bd 72 bb 49 3d 13 25 5c 3d 83 0c a2 3c
       -0.034074936 0.049251027 0.053746294 0.019781357
0000b0 86 29 05 bd 68 63 6a 3c e4 e2 a9 3c de 36 02 bd
       -0.032510303 0.014305927 0.020738073 -0.031790607
0000c0 4a ee 03 bd 32 8f 11 bd ef 4b 9f bc d2 35 0b 3d
       -0.032209672 -0.035536952 -0.019445388 0.033986874
0000d0 57 52 76 bd 79 a5 1b 3d 72 dd a7 bc 2d d7 1b bc
       -0.06013712 0.037999604 -0.020491336 -0.009511751
0000e0 f9 a8 86 bc ef 59 02 3d ec 5d 9f bc 74 dd dc 3c
       -0.016437994 0.03182405 -0.019453965 0.026961066
0000f0 86 93 c5 39 24 f9 aa 3c 42 f7 0b 3d c1 41 b4 bc
       0.00037684682 0.020870753 0.03417135 -0.02200401
000100 fa fd 03 3c 6e ab 80 bd 15 91 14 3c bd ab 0f bd
       0.008056158 -0.062826976 0.009067793 -0.03507589
000110 7e 44 1a 3d a3 49 ce bc d7 44 ec bc 54 e0 01 3d
       0.037662975 -0.025181597 -0.02884142 0.031708077
000120 8f c2 98 bc fe 07 eb 3c a4 a9 81 bc 35 3a d0 3b
       -0.01864746 0.028690334 -0.015827961 0.006354595
000130 8d 30 f5 3c a4 c6 05 bc e4 ac 0a 3d d4 99 3c bc
       0.029930377 -0.008165035 0.033856288 -0.011511285
000140 d6 7c 5d bd e9 3e d9 3c 80 43 74 bd dd 0f 3b bd
       -0.05407413 0.026519256 -0.059634686 -0.045669425
000150 88 6a 30 3c 1b 99 54 3c 66 45 78 bd 59 10 77 bc
       0.0107675865 0.012975956 -0.06061306 -0.015079581
000160 c0 04 49 bc 6d 89 86 bc 33 43 5e bc 30 48 7c bb
       -0.012269199 -0.016422952 -0.013565826 -0.0038495176
000170 1e b1 09 3d d2 b3 29 3d 92 ae 98 3a 2d c4 6c bc
       0.033616178 0.041431256 0.0011648706 -0.014451069
000180 32 4a c4 bb a8 20 ec bc 2c aa 1d 3c 2d 99 d6 bb
       -0.00599029 -0.028824165 0.009623092 -0.0065490217
000190 09 1e 16 bd 30 8f cb 3c 37 67 4a bd 93 df 0d 3d
       -0.036649738 0.02484855 -0.04941484 0.034637045
0001a0 c2 81 98 3c 99 ed 20 3d 17 0a 40 3d 59 fa ba bc
       0.01861656 0.03928909 0.046884622 -0.022824453
0001b0 76 46 c0 bb 28 ed 02 bc 44 5c a2 bc 6a f9 83 3b
       -0.0058677746 -0.007991113 -0.019819386 0.004027535
0001c0 17 7c 7f bb 80 e4 81 bc 42 17 ea 3b f3 8b 1b bd
       -0.0038983875 -0.015856028 0.007143886 -0.037975263
0001d0 bd fd 3f bd 43 b9 e7 bb 58 df 79 3c 87 21 e2 bc
       -0.046872843 -0.0070716455 0.015251003 -0.027603878
0001e0 28 0d 9f bc e3 be fc bb 51 bb 68 3c 26 79 e6 bc
       -0.019415453 -0.007713185 0.014204816 -0.02813394
0001f0 29 aa 1a bc d6 c8 5d bd 01 e0 07 3d b4 59 3b bd
       -0.009439983 -0.05414661 0.03317261 -0.045739844
000200 4e be 18 3d 81 30 0d 3d b0 7c 6e bc 1c 7d e0 3c
       0.037290864 0.034470085 -0.014556095 0.027403407
000210 1e 5f 0b bd e2 0d 28 3d 2d 41 29 3c 6c 7a 0c 3c
       -0.034026258 0.041028865 0.0103304805 0.0085741095
000220 d3 b6 df 3c 54 68 5d bc 4a 3c bf 3b 9f c0 12 bd
       0.027308857 -0.013513643 0.0058360444 -0.03582823
000230 8c be c5 bc ca f3 8d bb 1f 6f 94 bb 3f 11 11 bd
       -0.024138711 -0.0043320404 -0.004529848 -0.035416838
000240 7b 0f 66 bc fe 62 6f 3b c5 37 a7 3c cb 00 fa 3b
       -0.014041777 0.003652751 0.020412335 0.007629489
000250 84 88 df bc b5 78 71 3c ad 11 82 3d 89 e3 15 3c
       -0.027286775 0.014738251 0.06351028 0.009148487
000260 86 2d b8 bc 37 5e 08 3d f6 7b 02 3d 0e 32 a5 3c
       -0.022482645 0.033292975 0.0318565 0.02016547
000270 de c9 0d bd 30 8e 13 3c f4 20 d6 3c 29 a1 aa bc
       -0.034616344 0.009006068 0.02613876 -0.0208288
000280 13 7f dd 3c 35 e4 f8 bd 56 05 5d bc d8 31 07 bd
       0.027038133 -0.12152902 -0.013490042 -0.03300652
000290 8a 44 88 3c fb d9 70 3c 7f bc 81 bc 76 78 a2 bb
       0.016634244 0.014700408 -0.015836952 -0.0049582077
0002a0 7d 71 d5 3c 9e 56 36 3d d6 79 3b 3d 24 c5 d7 3b
       0.026055092 0.0445162 0.04577049 0.0065847803
0002b0 d9 53 08 bd 0a e4 9f 3c 18 cf 10 3d ba ea 15 bd
       -0.03328309 0.019517917 0.03535375 -0.036600806
0002c0 82 02 0a ba 8c be d0 bc b0 49 14 bd 24 d6 37 bb
       -0.0005264656 -0.025481485 -0.036203086 -0.0028051222
0002d0 37 c7 83 3c d1 f9 21 bd 7e 26 fa 3c 29 46 8b bc
       0.016086204 -0.039544884 0.030535933 -0.017001228
0002e0 5a f3 17 bb d7 89 9a 3c 60 a8 d2 bc c4 ab 01 bd
       -0.002318582 0.018864555 -0.025715053 -0.03165795
0002f0 63 55 20 3d bd c1 8b bd af f4 a7 bc 98 1b 0d bb
       0.03914393 -0.06824062 -0.020502416 -0.002153134
000300 79 d7 b0 3c c8 74 89 3c 93 dd 95 bc 64 9c 2c 3d
       0.02158712 0.016779318 -0.018294131 0.042141333
000310 10 53 c2 bc 3e ef 29 3d 04 20 ee 3c 69 39 8b bc
       -0.023721248 0.041487925 0.029068 -0.016995149
000320 82 c0 a5 3c 1e 37 f6 bc ff 17 78 3c 9a 72 a1 3c
       0.020233396 -0.030055579 0.01514244 0.019707967
000330 ed eb 8d bc d6 8c 16 3d 18 9e 2c 3c 8c b3 08 3d
       -0.017324412 0.036755405 0.010535739 0.033374354
000340 89 78 30 3d 75 50 02 bc d3 ee fa 3c 7c cd 32 bd
       0.0430837 -0.007953753 0.030631458 -0.043652996
000350 76 fd d0 bc 50 e0 5f 3c 7b cb 29 3d 0b db 2f bd
       -0.025511485 0.01366432 0.04145382 -0.042933505
000360 35 69 61 bb ab de fe bc 5a 28 72 3d 02 57 06 bd
       -0.0034394984 -0.031112036 0.059120513 -0.03279782
000370 55 16 a3 3c 7e 95 99 3c 4a 71 31 3c 67 9a e5 bc
       0.01990811 0.018748041 0.010830233 -0.028027726
000380 d6 e2 1a 3c a3 98 63 ba cf f3 ec bc 29 8b 18 bd
       0.009453496 -0.00086821074 -0.02892485 -0.03724209
000390 24 7c 3f bd 5b 37 b6 3c c2 32 37 bd be fb 52 bc
       -0.04674925 0.022243192 -0.04472614 -0.012877403
0003a0 62 7f 11 bd 48 55 87 bb 64 ee bf bc ce 23 49 bd
       -0.035521872 -0.0041300394 -0.023429103 -0.04910641
0003b0 9d 67 ae bc b8 73 ec bc 1f 45 e8 3c c5 1c 0a 3d
       -0.021289641 -0.028863773 0.028353272 0.033718843
0003c0 6b 3f ad 3b ff 54 83 bc cf d9 99 bc 9a d4 5d 3d
       0.005287101 -0.01603174 -0.018780617 0.05415783
0003d0 f0 af 6a 3d 97 ba 25 bd cd 9e 8e bb 77 de 96 3b
       0.057296693 -0.04046115 -0.0043524266 0.0046041566
0003e0 52 45 09 bd eb 1d 5d bd e4 30 dd bc b9 60 99 bb
       -0.033513375 -0.05398361 -0.027000852 -0.0046807197
0003f0 a2 ad 2c bd 27 e9 86 3c 36 a3 b4 ba da 67 05 3c
       -0.042157777 0.016468598 -0.0013781551 0.008142436

fc3.weight f4 [2, 256]
000000 72 be ac bd c8 e2 d9 3b 5b fe 29 be 22 d1 07 3d
       -0.08434762 0.006649349 -0.16600935 0.03315843
000010 59 30 5a 3c 56 2a f4 bc dd 4d 76 3c 66 e4 ea 3c
       0.013317191 -0.029805344 0.0150332125 0.028673362
000020 f5 24 26 be d3 7d b4 bb 3b 23 18 3d 23 0f 27 bd
       -0.16225035 -0.0055081635 0.037142973 -0.04078592
000030 06 fe 56 3b 97 16 21 bc 82 ba 14 bc ca 83 15 bb
       0.0032805218 -0.009832046 -0.00907767 -0.0022814148
000040 5b 21 0d bd 21 c7 1a bd 5a b1 67 3c ff 6d 3e bd
       -0.03445564 -0.03778756 0.014141405 -0.04649162
000050 69 63 be bb 51 d0 01 be eb c8 8e bd 2f 89 35 bd
       -0.0058101905 -0.12677123 -0.06971916 -0.04432028
000060 76 0f 04 3d 58 85 fd 3d ad 7c 0d be 55 dc c3 be
       0.032241307 0.12378949 -0.13817091 -0.38254037
000070 77 83 92 be 4d ad 1a bc fa 58 12 be 0c af a7 bc
       -0.28615925 -0.009440732 -0.14291754 -0.020469211
000080 16 db 05 be cc 3a f4 bc 59 8d 92 bc 6a 8a 70 3c
       -0.13071856 -0.029813193 -0.017889665 0.014681438
000090 a7 92 2f bc 52 62 2b be 9b 7d 69 3d 67 0b 01 be
       -0.010716117 -0.16736725 0.057004552 -0.12602006
0000a0 14 9f 89 3b a4 5c c0 bd df cb 8a 3c a2 3a 85 3c
       0.004199872 -0.0939267 0.016942916 0.01626331
0000b0 66 9a 0a bd 1d 21 09 bc 6f 86 77 bc 8b 64 07 bd
       -0.033838652 -0.008369711 -0.015107735 -0.03305487
0000c0 34 cb 7d ba 53 96 29 be 73 cc a0 bd 2f c2 9d 3c
       -0.00096814637 -0.1656125 -0.078514956 0.019257633
0000d0 45 4a d1 bc 53 3b 15 3e d1 17 98 bd 22 7a 9c ba
       -0.02554811 0.14573412 -0.074264176 -0.0011938254
0000e0 71 be 90 3b 93 1a b8 3b 4d d4 89 bd fb 79 54 bd
       0.0044172336 0.0056184023 -0.06729946 -0.051874142
0000f0 f3 5c 85 be fc 2c 80 3c 0a 65 8f bc 5f 10 12 be
       -0.26047477 0.01564645 -0.017504234 -0.14264058
000100 7b 70 e5 3b 71 52 1a 3e 3e cf b9 bc 6b 9b 91 bd
       0.007001934 0.15070511 -0.022681829 -0.07109722
000110 33 67 6b 3d af ed 51 be 87 b5 81 3c 25 98 bb bc
       0.057471465 -0.20500825 0.01583363 -0.022899697
000120 b4 db 38 3c 26 b0 ab bd c8 fd 08 3d 9c d1 64 3b
       0.01128285 -0.08383207 0.03344515 0.0034914976
000130 f7 cd 3c bd 5d cb 41 be 6b 8f 48 3c 6c ad 25 be
       -0.04609486 -0.18925233 0.012241225 -0.16179436
000140 63 26 e1 bd 26 79 4d be 03 ef d6 3d 99 a6 93 bc
       -0.1099365 -0.20065746 0.104948066 -0.018023776
000150 c3 d5 1a be 4d 2a fc bc e6 7c 7b bd 83 a2 82 3b
       -0.15120606 -0.03078189 -0.06139841 0.003986658
000160 ba 6a f0 bd 48 8e 78 bb 93 52 fe bd 72 2f 55 bb
       -0.117391065 -0.0037926603 -0.124180935 -0.00325295
000170 f5 20 64 3d de b7 eb bc e7 ea df 3c f5 1b 7c bd
       0.055695493 -0.028774198 0.02733369 -0.0615501
000180 22 01 0e bd f0 58 28 bd 9e 05 c2 be 0a 0b 48 bd
       -0.03466905 -0.041100442 -0.3789491 -0.048838653
000190 12 54 4c 3d 32 98 9a 3c a0 8f 22 3b 87 72 3a bc
       0.049884863 0.0188714 0.0024804845 -0.0113798445
0001a0 04 87 96 bd d8 6b 7a bc aa 98 b4 3c 9d ae 0b be
       -0.07349971 -0.015284501 0.022045452 -0.13640828
0001b0 e1 7b db bb 01 53 00 3d 4d f5 9f bd 12 b3 ab bd
       -0.006698117 0.03132916 -0.07810459 -0.08383764
0001c0 f4 08 88 bb 14 d5 3d bc 7f 36 cb bd 63 c2 df bc
       -0.004151458 -0.011586446 -0.09922504 -0.02731437
0001d0 d0 ea 92 bd 8b 87 09 ba 98 80 ca 3b 99 52 23 3e
       -0.07173693 -0.0005246333 0.0061798804 0.15949477
0001e0 ef 0a 1a be f1 f8 7d 3c e5 57 a8 3e ff 14 65 3d
       -0.15043233 0.015501247 0.32879558 0.055928227
0001f0 c7 6a 2c bd 47 1e 52 bd dd f5 34 bd 48 70 5e be
       -0.04209402 -0.051298406 -0.044179786 -0.2172252
000200 8e 52 4a 3c b3 0d e4 bd ab b5 1d 3e cc c9 33 bd
       0.012348784 -0.111354254 0.15401332 -0.04389362
000210 1a a5 a7 bb a3 10 91 bd 96 1a d1 bc 53 ed 06 be
       -0.005116117 -0.07083251 -0.025525372 -0.1317647
000220 ef 3d a6 bd 04 0c 79 bd f0 28 0a bd e9 38 52 3a
       -0.08117282 -0.060802475 -0.033730447 0.00080193445
000230 ed 54 c5 3d e2 cc f2 bc 23 27 2b be 46 2c 87 3c
       0.09635339 -0.029638711 -0.16714148 0.016500603
000240 3e 91 28 3e f6 7c 88 3b 8b ff 0d be b6 23 88 3e
       0.16461655 0.004165287 -0.13867013 0.26589745
000250 8a 6b 00 bd 5b 90 14 3c fd d0 bf 3c a0 7f 8e bc
       -0.031352557 0.00906762 0.023415083 -0.01739484
000260 a3 2f 1b 3d 62 90 26 3d 4d 50 2c bd 3d 99 5b bd
       0.037887227 0.040665038 -0.04206877 -0.053612936
000270 00 32 0e be 15 ec b0 bc 47 b1 0a 3c 52 68 97 3b
       -0.13886261 -0.021596948 0.008465118 0.0046205902
000280 9a 4a 19 3d 5a 5b fd 3d e7 5c 84 3b 36 5e cb 3b
       0.03742466 0.123709396 0.004039395 0.006206299
000290 0a b4 42 bd 95 f4 88 3c e3 94 19 bd 60 b8 98 bb
       -0.04753498 0.016718188 -0.037495505 -0.004660651
0002a0 35 3e 74 3c 8b 00 f8 3c 3b ec b1 bd b5 e1 c7 3d
       0.014907409 0.030273696 -0.086876355 0.09759847
0002b0 55 70 68 bc 29 26 c9 bb 59 17 85 3d 98 38 0b 3c
       -0.014186938 -0.0061385822 0.06498594 0.00849738
0002c0 c7 ce ed bc b9 6e 11 3d 5b 6f 4f bd 52 f8 15 be
       -0.029029263 0.035505984 -0.050643306 -0.14645508
0002d0 d7 cf df be 0c 82 b8 bc 33 42 f7 3c ae f7 3a bd
       -0.43713257 -0.022522949 0.030182933 -0.045646362
0002e0 d4 a5 87 3d c9 9b 14 be af 45 11 be 3b 24 4e 3c
       0.06623426 -0.14512552 -0.14186738 0.01258188
0002f0 20 2e a5 bc 52 ee 3a 3e 81 f4 c9 bc b5 91 8e 3e
       -0.020163596 0.18254974 -0.024652721 0.2784554
000300 22 12 06 bc b8 65 f9 bc 8a b8 41 bd e2 d9 a9 bd
       -0.008183034 -0.030444011 -0.04729513 -0.08293511
000310 de 23 51 bc b0 d2 ec bd d5 03 b2 bc ea 7a e4 bd
       -0.012764899 -0.11563623 -0.021730343 -0.111562565
000320 8c 5d c1 3c 7e b0 54 bc aa 5b 87 bd 04 6d f6 bc
       0.023604177 -0.012981532 -0.066092804 -0.03008128
000330 bb 70 99 bd 97 98 6f 3c ec d1 84 bd 3e e6 37 be
       -0.07492205 0.014623783 -0.06485352 -0.17958924
000340 b5 e7 48 3d 33 81 10 bd d3 8f 33 be d8 af 2a bd
       0.049049098 -0.035279464 -0.17535333 -0.041671604
000350 a7 15 e1 bc 0e 90 f5 3b d8 ad 00 3d 8c 4e 2f be
       -0.027476145 0.0074939793 0.03141579 -0.17119807
000360 4f 4b af bc 43 57 05 3e fd fe c9 3c a2 34 f4 ba
       -0.021398215 0.13021569 0.02465772 -0.0018631408
000370 15 60 bf 3c e7 fe 6c 3e 88 e7 a8 bb aa 77 36 be
       0.023361245 0.23144113 -0.005154554 -0.17819086
000380 aa 76 90 bd 2b 4b 4f bc fc 9d b8 bb 3a 21 ce bc
       -0.070538834 -0.012652199 -0.0056340676 -0.025162328
000390 16 aa af bb e7 67 cd 3b 61 33 a5 bc c2 a6 76 bb
       -0.005360852 0.0062684896 -0.020166101 -0.0037636016
0003a0 1f 0d 43 bd 3f 3f 4e bd ab eb 0d bc bb 0b 0b bd
       -0.047619935 -0.050353285 -0.008662145 -0.033946734
0003b0 65 b9 89 bc b8 d0 62 bd 5c 10 52 ba 15 5d b0 3d
       -0.016812036 -0.05537483 -0.0008013302 0.08611504
0003c0 ef 6a 74 bd 8d 5d a2 bc 2d 88 58 3c 51 b9 00 bc
       -0.059672292 -0.01982 0.013216061 -0.007856683
0003d0 a7 2d 07 3d 3f 35 36 be 0d 00 45 3d d9 7b b4 3c
       0.03300252 -0.1779375 0.04809575 0.022031711
0003e0 a7 63 92 be d3 68 a0 bd 5c 1a 91 bd 81 06 14 3d
       -0.28591654 -0.07832494 -0.07085106 0.036139015
0003f0 2b bc fe 3b ee 7e 6d bd 61 94 8a 3c a2 16 e2 3a
       0.007773896 -0.057982378 0.016916456 0.0017249177

fc3.bias f4 [2]
000000 b4 f3 fa 3b 7c 18 f4 bc
       0.007658446 -0.029796831
